work_dir/DNnet/UIEB/20250319/122851/best_psnr_model.pth (torch, 59798 bytes, 24 tensors)

stem0.0.weight f4 [64, 3, 3, 3]
00000000: b448 2fbb 1cfd bb3d 7124 17be 8cad 19be
00000010: 98dc b6bd 811a 5c3d 243c 8ebb 8683 143e
00000020: f93c caba 39ac 123d 0422 9ebd 5b73 3bbd
00000030: d816 51be 11ce 1cbe c5d8 b4bd ad0e cdbb
00000040: d0ef 6a3d e34d de3d 27c4 e5bd d748 8abd
00000050: e3e9 b13d 80e9 333e a738 b7bc 7f94 273e
00000060: e11a 99bb 672b 313d 85ff 493e cd47 2cbe
00000070: e249 e5bd f610 46bd 5697 92bd ebce 193e
00000080: 12c8 e2bd fe28 a9bd c4bc f1bd 43af 20be
00000090: 5139 bbbd 7ae1 3e3e f813 e33d 839e e93d
000000a0: cf7b 173d 76f4 88bd a1f0 5d3d 3493 16be
000000b0: 5d3b dbbd 28b4 a0bd 5897 0d3e ea2e 053e
000000c0: e2d6 82bd b17c 3b3c 284a 0f3e e1a1 513e
000000d0: 0f1b c03d f60d 3b3d 3057 1b3e c8bf d7bd
000000e0: 4d6d b03c 67ab 04be 59d1 15be 05ba 01be
000000f0: 1db2 b93d 276e 533d 7a3f 0cbe f315 973d
00000100: 2e81 a93d dff7 91bd b5ea ac3b ab0f 06bc
00000110: 4cf3 143d 7f72 243e fe61 48be fb3d ffbd
00000120: 2557 dc3d eb81 363e e2be 333e 8724 443e
00000130: 1d19 593d 3d51 19be 5538 413d 8412 cabd
00000140: 0240 1bbe 376d 373e 5cd5 1d3e bf85 1fbe
00000150: 81f4 813d 6756 59bb e9a2 1dbc c964 50bd
00000160: 426f c03d b80e aabd 6ddb 313d e829 893d
00000170: 19bb d43d 9718 563d 7e2c 49be 9455 0fbe
00000180: e8a5 9a3d 8c9c b63c e717 24be c780 f5bd
00000190: 74d2 183e 5a7d ce3d 31df b7bd 1d03 71bd
000001a0: cc5f 40be 5d12 92bc da55 17be b320 1ebe
000001b0: dd7c f7bd 65c3 c3bd 3bae 2ebe c20c 10bd
000001c0: f3df 40be 7268 a23a 2bf5 adbc 2302 5ebe
000001d0: 731a 14be f6c1 84bc d791 8bbb 8e5d 993b
000001e0: abff 2f3d db9d 64bc cb07 d6bd 3a56 753d
000001f0: 4328 31be 2d67 eebd c24f 70bd 1379 c9bd
00000200: f6d4 a6bd 07e1 15be 45d0 49bd 74af 873c
00000210: 4899 eebd c672 abbc 27b4 d13d c727 e7bd
00000220: 6f4b c6bd a487 ebbd 636b 94bd 540d 62bc
00000230: 2aed e63c d517 5cbc 0e7c e53c 7a33 e6bd
00000240: 18eb 17be 76db aebd f1c0 b93d 290a eabb
00000250: 6359 b2bd 1cb1 08be c993 1abe 9897 0fbe
00000260: f067 2fbd c176 853d e9e2 813d d976 41be
00000270: 4416 a53d 2e3e 1abe 3e8d 6dbd 0e85 afbd
00000280: 2171 4dbd b3d1 53bd b8ed 33be 5b0f 2dbe
00000290: 1f5a abbc 8a38 80bc 3761 d6bd 0caf 8c3d
000002a0: ebd8 39be 8cf4 febc 3805 263e f1b4 b9bd
000002b0: cffd 243e 11f1 863d f9fa 40be bd95 d63d
000002c0: fd75 e8bc 36c2 cdbd 0fee 0a3e 263f 26be
000002d0: a713 6e3c 1d07 39bd 79ac 073e 4162 443d
000002e0: d0c5 ae3d ead7 813d ceec 47bd fcc5 3abd
000002f0: d3bb 24be afbb 063e 10c6 243e 0cc8 153e
00000300: 9028 cfbd cbd8 553c 5479 e6bd 19c2 92bd
00000310: f462 c0bd 94d8 963d 8858 d8bd ebf7 b6bb
00000320: debc 283c 1e4f ff3d f793 1cbe c1ac 09be
00000330: f33a dcbd b879 ff3d cd9c 91bd 7c97 3b3e
00000340: 4708 b53d 8d2b 353d bbc2 c83c 1a9f 87bc
00000350: 60dc 373d 57c3 63bc 16a3 c43c 0ceb 453d
00000360: 15fc 47be b68f 26be 8a3d ae3c 168e 4bbe
00000370: 91cd c7bd c615 4b3d bcc2 08bd 43f6 a8bd
00000380: 2634 5abe d186 553d 1d08 2bbe d6de cabd
00000390: 2c88 bcbd 9b70 86bd 8d17 31bd 6232 eb3d
000003a0: b25f 65bc 2ea7 f13d 968a 9c3d e119 1abe
000003b0: 18cd 1e3d bf6c 21be 68b6 dfbd e91e 823c
000003c0: 5e96 fd3c 7328 d73d b85a b9bd 3c88 d4bc
000003d0: b154 0d3d a361 20be 241c 903d 8d74 0ebe
000003e0: 1234 09bd 0d88 3cbd 2a9c c4bd 973a a9bc
000003f0: 4628 2c3e 65a2 31bd f44e bdbd d41e 4bbd
-0.0026746215 0.09179136 -0.14759995 -0.15007609 -0.08928794 0.053736214 -0.0043406654 0.14503297
-0.0015429548 0.035808776 -0.07721332 -0.04576431 -0.2041887 -0.15312983 -0.08830408 -0.006257853
0.05735761 0.108546995 -0.11219054 -0.06752174 0.086871885 0.17569542 -0.022365881 0.1636524
-0.0046723937 0.043254282 0.19726379 -0.16824265 -0.11195733 -0.04835602 -0.07157771 0.15020339
-0.11073317 -0.08259772 -0.11803582 -0.15691857 -0.091417916 0.186407 0.11087793 0.11407187
0.036983307 -0.06687252 0.05418456 -0.14704591 -0.10704682 -0.07846862 0.13827264 0.13006178
-0.06388642 0.011443303 0.13993132 0.20471908 0.09380161 0.04566761 0.15169978 -0.10534626
0.021536494 -0.1295601 -0.14630641 -0.12668617 0.090671755 0.05161872 -0.1369609 0.07377233
0.08276592 -0.07127356 0.0052770027 -0.0081824465 0.03636484 0.16059302 -0.19568631 -0.12462994
0.10758809 0.17822997 0.17553285 0.19154559 0.053002466 -0.14972396 0.047172863 -0.09866813
-0.15161136 0.17912756 0.15413421 -0.15578364 0.063454635 -0.0033163072 -0.00962136 -0.050877366
0.09396221 -0.08303589 0.04342215 0.06697446 0.103872485 0.052269544 -0.19645879 -0.13997489
0.07551175 0.022291444 -0.16024743 -0.11987453 0.14924031 0.10082503 -0.08978117 -0.05884086
-0.18786544 -0.017831022 -0.14778844 -0.15442161 -0.12084363 -0.09558753 -0.17058651 -0.035168417
-0.1883543 0.0012390746 -0.02123507 -0.21680503 -0.14463215 -0.016205769 -0.004259329 0.004680342
0.042968433 -0.013953651 -0.10450705 0.059896685 -0.17300515 -0.11640773 -0.058669813 -0.09837546
-0.08146088 -0.14636622 -0.049270887 0.016563155 -0.1165033 -0.020928752 0.102394395 -0.11286884
-0.096823566 -0.11500481 -0.07247045 -0.013797123 0.02818926 -0.013433416 0.028013255 -0.11240287
-0.14835775 -0.085379526 0.09070004 -0.0071423245 -0.087084554 -0.13348812 -0.15095438 -0.14022672
-0.042823732 0.06516791 0.06342108 -0.18892993 0.080608875 -0.15062782 -0.057996027 -0.085703
-0.050156716 -0.051713657 -0.17571151 -0.16900389 -0.020916997 -0.01565196 -0.10467761 0.06869325
-0.18149154 -0.031122468 0.16212928 -0.09067715 0.16112445 0.065889485 -0.18845738 0.10477779
-0.028376574 -0.100468084 0.13567375 -0.16235027 0.014531053 -0.0451728 0.13249387 0.047945265
0.085338235 0.063400105 -0.04880982 -0.04559897 -0.16087274 0.13157533 0.1609118 0.14627093
-0.101151586 0.013052176 -0.1125361 -0.071659274 -0.09393874 0.07365528 -0.10563761 -0.0055837533
0.010298936 0.12466262 -0.15290819 -0.13444807 -0.10753431 0.12474388 -0.071099855 0.18319505
0.088394694 0.044230986 0.024506917 -0.016555358 0.0448879 -0.013901553 0.024003547 0.04831986
-0.19529755 -0.16265759 0.021269578 -0.1987842 -0.097560056 0.04958131 -0.03338884 -0.08250096
-0.21308956 0.052130524 -0.16702314 -0.09905784 -0.0920566 -0.065644465 -0.04323535 0.11484219
-0.013999866 0.11799465 0.07643621 -0.15048935 0.03876981 -0.1576414 -0.10923463 0.01588388
0.03095549 0.10505762 -0.09050506 -0.025943868 0.034504596 -0.15662245 0.070366174 -0.13911648
-0.033496924 -0.046028186 -0.096000984 -0.02065782 0.16812238 -0.043367762 -0.09243575 -0.049589947

stem0.0.bias f4 [64]
00000000: 4507 db3d 6403 1cbe 9b4e 913d 87d2 2d3e
00000010: 4ad4 153e 549c 3c3e 1364 2f3e daee 2a3c
00000020: ba5a b23d abef 7bbd 2a09 4a3e 4d0c 2f3e
00000030: 1162 c8bd a4e9 303e c8e8 343d bd17 0abd
00000040: 395f 82bd 6e89 0000 cecd 303d 9445 d7bb
00000050: 1cb3 84bc 21bc fdbd 2cb3 98bd ffc7 223e
00000060: 03cd 133e 06f3 83bd fc4b de3c 5949 ecbc
00000070: 4116 70bd c985 013d bcc0 70bd 8832 e13d
00000080: 4773 debd b8ac 1d3d 846b f1bd ea3c 6dbd
00000090: a16a 273e 8cce fcba 1c7f a43b 4e74 413e
000000a0: 9bae 8d3d 2ef0 47a2 aa10 1ea1 ec93 9b3d
000000b0: 1038 44bd 953a a23d 9e23 3abc 67b7 3d3e
000000c0: d005 c1bd 833a 45bd eea5 27bc 508a 453e
000000d0: ca1b 463e 6389 bd3d 5aba 41bd 033c 05be
000000e0: fa0d d03d 6878 11be f22e 72bc de88 00be
000000f0: 2e07 4fbe cc88 003e d22c 813d 0e33 353e
0.10694746 -0.15235668 0.07095071 0.16974841 0.14631763 0.1841901 0.17128019 0.010432923
0.08708711 -0.061507862 0.19730058 0.17094536 -0.0978433 0.17276627 0.04416731 -0.033714045
-0.063658185 4.93e-41 0.04316502 -0.0065695737 -0.016198687 -0.12389398 -0.07456049 0.15896605
0.14433675 -0.064428374 0.027135842 -0.028843569 -0.058614973 0.031621728 -0.058777556 0.10995966
-0.10861831 0.038494796 -0.11788085 -0.05791942 0.1634927 -0.001928763 0.0050200354 0.18892023
0.06918069 -2.709668e-18 -5.3554537e-19 0.07596573 -0.047905028 0.0792133 -0.011361031 0.18526994
-0.09424937 -0.048151504 -0.010232432 0.19291043 0.19346538 0.0925472 -0.04729686 -0.13011174
0.10158916 -0.14206088 -0.0147817 -0.1255221 -0.20217583 0.12552184 0.06307377 0.17695257

out0.0.weight f4 [3, 64, 3, 3]
00000000: 011b 23bc 0ae7 ea3c 4cf8 a43d e50b 283d
00000010: 2b84 103e 2a79 153e 4650 dd3d e03e de3d
00000020: f172 d63d d8d3 9ebc 8b93 4bbd e81f 01bd
00000030: 76bf 6cbd c52b 2fbc f0b3 71bd 1c38 65bd
00000040: f1c3 82bd e9fd 313b bcaa 8b3d 8ac8 a33d
00000050: 2d52 e9bc 1a8d b23d f7ec 233d 9ac1 91bc
00000060: 4038 3a3d 1a48 66bb 57d5 02bd b747 6bbb
00000070: 1328 3dbc 0b6e cdbc acd6 a93c 729e d7bc
00000080: 893e a4bd 31dd 06bd 2059 0dbd aed0 aabc
00000090: 1a14 743d 4c22 f33d 6d60 7c3d cb62 473d
000000a0: 06a0 873d 1e3e af3d 6c77 b73d 93b3 5c3d
000000b0: 2fcd ed3d d04d ab3d 093f 643d dc9f b43d
000000c0: fccf b63c 48c8 fd3c 6d2f 363d bdc2 1c3d
000000d0: dd58 643c 8a3d 753c 3ba9 dc3c d96a a63c
000000e0: 11cc 113e 7cbe 23bd c7d3 dd3c 0f79 e73d
000000f0: 70f6 8dbc 0942 da3c 96cb 1d3e 555b c03d
00000100: 2694 c73d bdf5 e53d 0056 b23d 2171 dd3d
00000110: 197f cc3c e21d 6f3d ff2e 433d f54b 593d
00000120: bbe2 863d 2d9a 8f3d 7a73 bf3d 9a9c d53d
00000130: 785b f73d 7972 e83d b23a ff3d c20a be3d
00000140: 8dd6 af3d bf56 aebc 46e8 6aba 63f8 47bd
00000150: 59d1 abbc 5724 95bc 9f27 febc aade 03bd
00000160: 32a6 f13c d058 95bd 301d 75bd 9f10 8fbd
00000170: dbdb a3bd 2d6b 89bb 7ee3 abbc d24a 93bd
00000180: b90c 8d3d 7cd3 e539 795d e73a 37aa 0d3e
00000190: fd64 2e3e a2f2 9d3c 2c3e 9a3d 9323 0a3e
000001a0: e293 6a3d 0af5 453d ede5 b73d 21dc 9d3d
000001b0: de82 cd3c 0f05 273c bc3a 71bc 7377 babc
000001c0: b69c 35bd b78a 83bd f74e 39bc eb15 26bd
000001d0: a5d6 a8bd 423b 9b3d bb11 9e3c b1dd bbbd
000001e0: 534d 8f3d b735 57bc d2de 4abd f32f b63d
000001f0: 83d4 803d a7f9 db3a 76f3 0c3d cf55 a23d
00000200: 0d9b 8e3d ce7a 493c 7bdd 2d3d c0b4 a03d
00000210: 721b 123d 375e 8c3d 8f22 9e3c 725a 0b3b
00000220: 7fcf f13c f31d 833d fc9a 73bd a724 f4bc
00000230: 22f0 b53d 8ea5 7c3c 5205 8f3c 153c d93d
00000240: edf2 233c e481 3ebc 758a 9dbd e8de 73bd
00000250: c4c7 6abd 0c50 9dbc cfb4 81bd 5099 1dbd
00000260: fb1e d5bc f58d 0000 748c 0000 c088 0080
00000270: 498b 0000 258b 0080 bd89 0000 468a 0000
00000280: 298b 0000 ce8c 0000 7e4b 31bd cdc7 c8bd
00000290: ef13 e6bc f0d3 3b3b d78f 90bd 4af2 46bd
000002a0: 515a c13d edef db3b 901a 8ebd b6b3 c839
000002b0: 9d0e f73a 1ae1 133b 9e5e 8a38 38bb 153a
000002c0: 1dca e83a f287 cdb9 a86c b437 7417 6639
000002d0: 875d eeac 048f c52b 6590 142e b3e1 38a1
000002e0: 3fd8 b022 a643 5d29 8c89 0000 1d02 6682
000002f0: 4783 ee1b 778e e13c fb25 973d 6027 c93d
00000300: cb04 9f3d 7103 063d 0849 7a3d 9a03 4f3c
00000310: 4d0b 813d ce77 d73d 0fec 2f3d 42c8 cd3c
00000320: 0d65 193d 0590 833d 5934 593b 5615 f0bb
00000330: 60b5 a03d 0bc5 1e3d 3ba2 45bd bb30 b33d
00000340: 95b9 033e b26c 533d 8a6b 383d e492 9e3d
00000350: 05b2 103d ac99 593b 212f 3e3c 3fcd 23bc
00000360: 7cad e1bd f174 9f3d 2778 d13d 4fa6 2abd
00000370: 1026 c13c 4bc8 dc3d 94cd 9abc c0a2 e13c
00000380: 9b38 3d3d c36f bc3b d310 97bc 3e16 38bc
00000390: 2670 98bd d643 79bd 87a4 94bc c73f a6bc
000003a0: 50be 27bd 9abe 46bd fea2 b9bd 31cc 16be
000003b0: 9b33 0abe 8574 0f3d f821 59bb 26a2 bebc
000003c0: d30f 0f3e e788 163e 5370 353d 6f02 9fbc
000003d0: 97cf c2bd dc02 17be b496 f23c ce5d 81bd
000003e0: 1b11 8dbd c061 373d 15c2 3f3d f695 f33c
000003f0: b49d 0bbc 1553 3fbc 9162 e03d 4880 43bd
-0.009955169 0.028674621 0.08055171 0.04102697 0.14112918 0.14597002 0.108063266 0.10851836
0.10471142 -0.019388124 -0.049701255 -0.03152457 -0.05779978 -0.010691588 -0.059009492 -0.055961713
-0.06385029 0.00271594 0.068196744 0.07997234 -0.028481567 0.08718319 0.04002091 -0.017792512
0.0454638 -0.003513819 -0.031941738 -0.00359009 -0.011545199 -0.025076887 0.020732246 -0.02632067
-0.0801974 -0.03292579 -0.034508824 -0.02085146 0.059589483 0.11871776 0.061615396 0.0486782
0.06622319 0.0855677 0.08958325 0.053882193 0.11611401 0.08364451 0.055724178 0.08819553
0.022315972 0.03097929 0.044478822 0.038271654 0.013937202 0.014968285 0.026936164 0.02031462
0.14238001 -0.039976582 0.027078522 0.11302387 -0.017329425 0.026642816 0.15409693 0.0939242
0.09745054 0.112285115 0.087078094 0.10812593 0.024962949 0.058378108 0.04765224 0.053050954
0.06586214 0.070118286 0.09348197 0.1043026 0.12077993 0.11349959 0.12462367 0.09279396
0.08585844 -0.021281598 -0.0008961003 -0.048820864 -0.020973848 -0.018205805 -0.031024752 -0.03219477
0.029498193 -0.0729233 -0.05984229 -0.06985592 -0.080009185 -0.0041936846 -0.0209825 -0.07192005
0.06887192 0.00043835852 0.0017651758 0.13834463 0.17030711 0.019280735 0.075313896 0.13490133
0.05726994 0.04832939 0.08979402 0.07708002 0.025086816 0.010194077 -0.014723476 -0.022762036
-0.044338904 -0.06422942 -0.011310331 -0.040548246 -0.08244065 0.07579662 0.019295564 -0.09173144
0.0699717 -0.013135365 -0.049528904 0.08895864 0.062905334 0.0016782776 0.03441187 0.07926523
0.06963167 0.012297345 0.04244755 0.07846975 0.035670705 0.068539076 0.019303588 0.0021263626
0.029517887 0.06402197 -0.059473976 -0.029802633 0.08883692 0.015420331 0.017458592 0.10607163
0.0100066485 -0.011627648 -0.07692424 -0.05953875 -0.057319418 -0.019203208 -0.063333146 -0.03847629
-0.02601575 5.0925e-41 5.0385e-41 -4.9057e-41 4.9966e-41 -4.9916e-41 4.9411e-41 4.9603e-41
4.9921e-41 5.0511e-41 -0.043284886 -0.09803734 -0.028085677 0.002866026 -0.07058685 -0.04857091
0.094410546 0.006711951 -0.0693866 0.00038280868 0.001884896 0.002256459 6.5979766e-05 0.00057117967
0.001776043 -0.00039201934 2.150827e-05 0.00021943246 -6.7747505e-12 1.4037387e-12 3.3779552e-11 -6.2640335e-19
4.7933855e-18 4.9130533e-14 4.9343e-41 -1.6898338e-37 3.9458633e-22 0.027533753 0.07380291 0.09821963
0.07764586 0.032718126 0.061104804 0.012635136 0.063009836 0.10520898 0.042949732 0.025119904
0.037449885 0.06423954 0.0033142774 -0.007326762 0.078470945 0.038762134 -0.04825042 0.08749529
0.12863763 0.05161733 0.045024432 0.07742861 0.035326023 0.0033203168 0.011607916 -0.009997665
-0.11019418 0.07785977 0.10227995 -0.04166251 0.02357772 0.1078039 -0.018896855 0.027543426
0.04619656 0.0057506277 -0.01844064 -0.011235772 -0.074432656 -0.06085571 -0.018144859 -0.020294083
-0.04095298 -0.048521616 -0.090642914 -0.1472633 -0.13496248 0.03502323 -0.003313182 -0.023270678
0.1397088 0.14700662 0.044296574 -0.01941034 -0.09512251 -0.14747185 0.029612876 -0.0631672
-0.06888028 0.044770956 0.04681595 0.029734593 -0.008521486 -0.011677523 0.109563 -0.04772976

out0.0.bias f4 [3]
00000000: daba ce3c b0fe 8db8 e536 87bd
0.025235582 -6.770843e-05 -0.06602267

stem1.0.weight f4 [64, 3, 1, 1]
00000000: f1fe 3cbe 689c a9bd 9788 403e 621e c43d
00000010: 6d44 003f c5e0 d83d 8d45 6cbe 5495 2ebe
00000020: 9166 ebbe 1000 76be d453 1d3e 0db2 ffbc
00000030: 521c e0be 8b20 debe 43ec 663e a0db bfbe
00000040: 4553 cabe ae56 9cbe d911 123f 7d2e cabd
00000050: 0752 62be 7f76 4ebe b053 d33e ced0 24bd
00000060: 3dfc 0b3e 8ccf 323e 6074 3e3e ef8d ad3e
00000070: b90e ad3c 18b0 c73d 9f1d 1fbd 98c5 d2be
00000080: b70c 9cbd 6893 193f c148 a7be 65a7 91be
00000090: 5207 0abf 9efa 8f3d df92 0bbf 2b78 8fbe
000000a0: 891e 033f 73bf 333e 52c0 a43e f908 ea3d
000000b0: 4c92 dfbe 4333 25be 314a d8be 1b65 a4be
000000c0: 9463 633e ccea 96bd add2 f23e 3d57 c5be
000000d0: fc71 f3be ba9e 0f3f e6eb f7be 5788 e43e
000000e0: fadd f03d 4926 0dbf 01d3 fe3e 825d 06be
000000f0: 708e b1bd 0d53 a7be 570a d2be 07fe c43c
00000100: dbd6 17bf 33c2 2f3e b5d0 11be dbb0 403e
00000110: 726a fabd aef0 4a3e b98d 123c d5df 583e
00000120: 9450 93be d4df e2be f5b8 8a3d 815d b5be
00000130: 0c3b b7be 517c 01bf 89ae 36be db5f bcbe
00000140: f881 de3e 2f9d c33e fbd0 383e 6310 e13e
00000150: ddcd 9c3e 8947 f7be 522b feb8 d069 9dbd
00000160: bea4 a8be 62df 193e 9ea3 18be fb39 80be
00000170: 8240 b9bc 2f2e a3be 4345 043f 2278 b63e
00000180: ec57 ea3e 6821 30be 4497 193e 9fc4 f1bb
00000190: 0de2 debe f07f 893e 78f4 c6be dae5 78be
000001a0: 7982 85be 137e fdbe bd94 9c3c e83d d33d
000001b0: c0b9 933c aa40 e63e 92d2 1f3d 967a b6bd
000001c0: 55a6 95be 8ff7 afbe 4170 12be b479 9ebe
000001d0: 5fd4 ccbe 6332 d8bd 0c77 1abe e41f a2be
000001e0: 6a09 e13e a9fb 0b3f 8ae3 abbe 907b 8f3e
000001f0: 28d7 67be f664 55bd 4cdd e63e fce3 c13c
00000200: 37b0 13bf 94f8 ff3e d5fc 3bbd e18a 9abe
00000210: 6d57 bcbe a007 d23e 4701 16bd 07a4 a43e
00000220: 38cb c83e 640a 56be 25ef 693d d807 b0be
00000230: 70d8 053f 63e4 74be 052d d53e 12b0 413e
00000240: 52fb af3e 018f c8be d7f3 49bc 473e a63e
00000250: 0b27 203d bf24 253d 108e 8d3e 29e9 b3be
00000260: fb88 b6bd ddbb 953e 3216 a83e e510 f13e
00000270: 379c c2bd 22ec 093e ac3e 6abe 98a5 f9bc
00000280: ca6f 52be afb3 de3e d696 6c3d 9ed7 803e
00000290: 2d3d a73e 62f6 56bd 3435 29bd 0ad5 c0bd
000002a0: 842d 01bf 93a2 c63c fda1 33be be31 e4be
000002b0: 0013 033f 3c2c 9dbc 7114 48be 1a6d c8be
000002c0: 3635 bdbe fae3 8e3e 5b46 41be 80e9 61be
000002d0: bd01 99be 0a3c f43e 8968 12be 12d1 4f3e
000002e0: e9e4 a23e 6391 f0be 206f db3e 9251 cbbd
000002f0: 1593 0e3f 7fc3 7b3e 1933 0fbf c71c 4b3d
-0.18456627 -0.08281785 0.18802105 0.095761076 0.5010441 0.105897464 -0.23073407 -0.17049152
-0.4597669 -0.24023461 0.15364009 -0.03121283 -0.43771607 -0.43384203 0.22551064 -0.37472248
-0.39516655 -0.3053488 0.57058483 -0.09872148 -0.22101603 -0.2016239 0.41274786 -0.040238194
0.1367044 0.17461985 0.18599081 0.3389735 0.021125184 0.09750384 -0.03884661 -0.41166377
-0.07619613 0.5999055 -0.32672694 -0.28448024 -0.5391742 0.07030223 -0.5452098 -0.28021368
0.5121847 0.17553501 0.3217798 0.11427493 -0.43666303 -0.16132836 -0.42244104 -0.32108387
0.22205955 -0.07369003 0.47426358 -0.3854312 -0.475479 0.5610157 -0.48422164 0.4463527
0.11761089 -0.55136544 0.49770358 -0.13121608 -0.08669746 -0.3268055 -0.41023514 0.02404691
-0.5931222 0.17163925 -0.14239772 0.18817465 -0.12227334 0.19818375 0.008944922 0.21179135
-0.28772414 -0.44311392 0.06773559 -0.354229 -0.35787237 -0.50580317 -0.17840017 -0.36791882
0.43458533 0.3820586 0.1804847 0.43957815 0.3062581 -0.48296764 -0.00012119733 -0.07686198
-0.32938188 0.1502662 -0.14906165 -0.25044236 -0.022613768 -0.31871173 0.51668185 0.3563853
0.45770204 -0.17200243 0.1499911 -0.0073781754 -0.43531838 0.2685542 -0.3885839 -0.24306431
-0.26076105 -0.4951025 0.019113893 0.10314542 0.018032908 0.4497121 0.039019175 -0.089101
-0.29228464 -0.3436856 -0.14300634 -0.30952227 -0.40005776 -0.105564855 -0.15084475 -0.31664956
0.43952495 0.5468088 -0.33572036 0.28023958 -0.2264067 -0.052098237 0.4509071 0.023668282
-0.5769076 0.49994338 -0.045895416 -0.3018408 -0.3678545 0.41021442 -0.036622312 0.32156393
0.39217544 -0.20902401 0.05711283 -0.34380984 0.5228338 -0.23915248 0.4163591 0.18914822
0.3437143 -0.39171603 -0.012326202 0.3246939 0.039099734 0.040318247 0.27647448 -0.35138825
-0.08912846 0.2924489 0.32829434 0.47083202 -0.09502452 0.13468984 -0.2287547 -0.030474469
-0.20550457 0.43496463 0.057761036 0.25164503 0.3266386 -0.052481063 -0.041310504 -0.09415634
-0.50460076 0.024247443 -0.17542262 -0.445692 0.51200867 -0.019186132 -0.19539048 -0.39145738
-0.3695466 0.27908307 -0.18874495 -0.2206173 -0.2988414 0.47702056 -0.1429769 0.20294598
0.3181527 -0.4698592 0.4285822 -0.09927668 0.5569318 0.24586295 -0.55937344 0.04958799

stem1.0.bias f4 [64]
00000000: 284d 8d3e b9f6 3dbe 3509 f03e 9515 07bf
00000010: 1fa7 0abe 8b18 233f 092b 1c3f 466b b63e
00000020: e052 bdbe b50f e9be 5424 d4be 758d 62bd
00000030: eb5e c03e 5558 1c3e 78aa 64bc 9848 193f
00000040: 7695 f73e 76ea 80be ea82 85be ae3d 133d
00000050: 74a6 043e bce5 c9bd 6fec 313e db09 e63e
00000060: 02a4 36be 1b32 993e 328c 7b3d 2e29 943e
00000070: cadb 873e 1f3c 00be 8dc9 5dbe 5ac1 9e3e
00000080: 6e4b e5be f1fd b33e d494 d4be cbdc ad3e
00000090: 6e9c 8e3e 7a15 34be e6ce b73e 5569 7cbe
000000a0: e456 493e e5ac 3a3e 17b9 353c cc41 e63d
000000b0: a4f8 77bd d8e0 30be 5832 be3e e776 963e
000000c0: 6912 5d3e 3c70 ea3e 2ad6 5fbe ab11 59bd
000000d0: 479d babb e25a 0e3f d1c1 e4be e5a1 d5be
000000e0: 6c8a 5cbe 4c52 e0be 6448 cfbe bda0 e23e
000000f0: f345 c53d ff1b 0fbf 1a15 f0bd cfb3 bebd
0.27597928 -0.18551148 0.46882024 -0.52767307 -0.13540314 0.63709325 0.61003166 0.35628718
-0.3697729 -0.45519796 -0.41433966 -0.055310685 0.37572417 0.15268071 -0.013956659 0.59876394
0.48356217 -0.2517888 -0.26076442 0.035947494 0.12954122 -0.098582715 0.17375349 0.44929394
-0.17836002 0.2992104 0.061412998 0.28937668 0.26534873 -0.12522934 -0.21658917 0.3100689
-0.4478411 0.3515468 -0.41519797 0.33957514 0.2785372 -0.17586318 0.35900038 -0.24649556
0.19662052 0.18230017 0.011091492 0.112430185 -0.060539857 -0.17273271 0.37147784 0.2938759
0.21589054 0.45788753 -0.21859041 -0.052995365 -0.0056950185 0.55607426 -0.4467912 -0.41725078
-0.21537179 -0.43812788 -0.40484917 0.4426326 0.096324824 -0.55902094 -0.11722775 -0.093116395

out1.0.weight f4 [3, 64, 1, 1]
00000000: 1e70 dfbd 7c80 58be f9b2 acbc bdfa e6bd
00000010: 5d51 43bd 20b8 2cbe 0cb5 39be 0e74 e0bd
00000020: 38b4 01be 0b4a d63c 4436 37bc 1cfc 8f3d
00000030: ad21 59be eaa4 cc3b b6c5 6e3d 725c ddbd
00000040: d2cc acbd 7a5c dbbd edd0 e43c 6612 29be
00000050: 02f9 373d cae3 18be f427 45bd 2a76 3ebe
00000060: 2d57 6fbe b843 35be 4b4b 5dbb a79a 26be
00000070: 274d 603c 92fb ddbd 6b2f 97bd d721 e4bd
00000080: 77f6 f2bd 9ac6 d3bd 67f5 38be 02eb 693d
00000090: 3a56 f1bd 1164 15be c2b2 6cbe 2e80 babd
000000a0: 181b 9cbe f372 9ebd 97dc 833d 8924 48be
000000b0: b847 f43c c654 2ebe 280d 32be 4513 5abe
000000c0: 643a a43a 59d2 5bbe 35d6 d1bc f1f9 8fbd
000000d0: 2b96 743c fb39 38be 0aeb 4e3d 1075 65be
000000e0: 3717 78be 116e 423a 5d83 bebd 0a31 14be
000000f0: c12d cdbd 4c94 33be 480b 59be b61c dfbd
00000100: 6db8 ce3d d3c6 403d 4ab6 943d 413f c8bc
00000110: 3986 f53d 5c27 513d 15a7 5d3d fd56 fa3c
00000120: 1800 183e 0df5 433d 3e3a df3d a52d c53d
00000130: 66d7 053d ee09 983d c1bb 03bd 27a3 4f3e
00000140: c84e 373d b85c d43d 3605 c4bc ec72 ebbd
00000150: 498f d63c 3349 9a3d 6b07 f33d cee6 6e3d
00000160: 5882 663d c87a c03d e03c 94bd 67e8 e43d
00000170: 7750 bc3d 8bbb cb3d ad5e ca3d 636c 9abd
00000180: edd6 9a3d e183 df3d d788 a1bd da32 c53b
00000190: 3a1e 62bd ab6c a1bc bd0b a03c 95e6 9e3d
000001a0: c38d b5bc 818a dbbd 3c30 383d 7845 503d
000001b0: 3868 13bd 8e90 9a3d de1e d23d f939 89ba
000001c0: cb75 1c3c 221b 043d 15a3 c53a 1366 ecbc
000001d0: ee7c 66bd 8a49 5bbd 9554 4d3e c54c a8bc
000001e0: 212b 62bd f537 d63d 0e0e e33c 1e23 b73d
000001f0: 215e 023e 9bb1 f7bb 2528 263c ecf5 0d3e
00000200: 2754 babc 91b4 90bc d242 cb3d 37bb cebc
00000210: 858f 3c3c a27c cb3d 6f17 90bd 98b2 cfbc
00000220: d071 823e e7cf b1bd 3986 c9bd 7570 b3bd
00000230: 4379 1a3e 074b f3bd 5c7d 41bd 19cb 3b3e
00000240: 4dc8 8ebd aae8 863d 13c0 0cbc 2d35 573d
00000250: 4d27 c83c ca1a c3bc af97 a93c 9a17 d63d
00000260: a5b1 bbbd f13e b03d 4f91 5e3c d1df 23bc
00000270: bcd8 edbc 1e48 6f3c 7042 a03d 6284 e8bd
00000280: b83a d5bd c393 a1bd c1c5 8a3c e430 d2bc
00000290: db2e 4fbd faac e53d 494e b73b d731 93bd
000002a0: 9993 61bc 21b2 4bbd 19f2 debc babf 533d
000002b0: fd4f 603d 0b57 e4bd 5092 183e 1376 903d
000002c0: 1f5c 87bd 55f7 313d bc9c 1f3d d91f a9bd
000002d0: 0553 cdbc f346 abbd 77e9 313e 6f10 013c
000002e0: 0919 3d3d ed64 82bd b0d0 983d edd2 f6bc
000002f0: a250 06be 5ca6 2e3c 3c83 af3d 88a1 e83b
-0.109100565 -0.21142763 -0.021081435 -0.11278293 -0.047685016 -0.16867113 -0.1813547 -0.10959636
-0.12666404 0.026158353 -0.0111823715 0.07030508 -0.21204253 0.006245245 0.05829402 -0.10808648
-0.08437504 -0.10710998 0.027931655 -0.16510925 0.044915207 -0.14930645 -0.048133805 -0.18599764
-0.23373099 -0.17701614 -0.0033766802 -0.16269933 0.01369027 -0.10838999 -0.07382091 -0.11139267
-0.11863416 -0.103406146 -0.18062364 0.057108887 -0.117840245 -0.14588954 -0.23115066 -0.091064796
-0.3048942 -0.077367686 0.064385585 -0.19545187 0.029819354 -0.17024526 -0.17387831 -0.21296413
0.0012529609 -0.2146696 -0.025614837 -0.070300944 0.014928381 -0.17990868 0.05051712 -0.22407937
-0.24227606 0.0007416914 -0.09302399 -0.14471832 -0.100184925 -0.1753704 -0.2119571 -0.10894148
0.1009377 0.047064614 0.072613314 -0.024444224 0.119884916 0.051062927 0.05411442 0.030559057
0.14843786 0.04784112 0.10899781 0.09627847 0.032676123 0.07423769 -0.032161478 0.20277081
0.044752866 0.10369247 -0.023928266 -0.11496529 0.02619137 0.07533493 0.11866649 0.05832558
0.05627665 0.09398419 -0.072381735 0.1117714 0.09195035 0.0994788 0.09881339 -0.075402044
0.07560525 0.10913826 -0.07887428 0.006018025 -0.055204608 -0.019705137 0.019536847 0.07758824
-0.022162324 -0.10719777 0.044967875 0.0508475 -0.035988063 0.07547103 0.10259794 -0.0010469548
0.009549568 0.03225244 0.001507851 -0.028857267 -0.056271486 -0.05353693 0.20051797 -0.020544419
-0.055216912 0.10459892 0.027716663 0.08942245 0.1273122 -0.007559014 0.010141407 0.13863343
-0.022745205 -0.017664226 0.09924854 -0.025235755 0.011508827 0.09935881 -0.070357196 -0.025353715
0.25477457 -0.08682232 -0.09840054 -0.08761684 0.1508532 -0.11879545 -0.047238693 0.18339194
-0.06971798 0.06587346 -0.008590716 0.052540947 0.024432803 -0.023816485 0.020702211 0.104537204
-0.091647424 0.08605755 0.013584449 -0.010002092 -0.029034011 0.014604596 0.07825172 -0.11353375
-0.1041159 -0.078895114 0.01694 -0.025658078 -0.050581794 0.11214633 0.005594049 -0.071872406
-0.0137681 -0.049730424 -0.02721505 0.051696517 0.054763783 -0.11149415 0.14899564 0.07053771
-0.066093676 0.043448765 0.038967833 -0.082580276 -0.025064 -0.08363142 0.17374216 0.007877453
0.046166454 -0.06366906 0.07461679 -0.030129874 -0.13116696 0.01065978 0.08569953 0.007099334

out1.0.bias f4 [3]
00000000: 1aa8 f1bd de23 8ebd 325b c3bd
-0.11799641 -0.06940435 -0.095388785

exp_avg f4 [64, 3, 3, 3]
00000000: 4af3 693a a7dc 533a 6faf 103a 9841 743a
00000010: 5b35 523a 7603 0f3a cc7a 543a 0fea 2e3a
00000020: e25a df39 c4d5 6dba a402 8bba f14e a0ba
00000030: 8b1d 69ba cb60 87ba 0a0d 9fba 8d3c 77ba
00000040: 735e 8dba 6da0 9dba 5f45 2dba 3ee9 52ba
00000050: 54e2 70ba 927b 36ba 72b1 5dba cc3d 74ba
00000060: ec19 58ba d784 6fba 49e9 77ba 4534 52b9
00000070: 9722 56b9 8a2f 22b9 816b 73b9 249d 56b9
00000080: ef8c 45b9 f8bc 75b9 3964 75b9 8649 41b9
00000090: 1060 173a 0537 263a 619a 2f3a 5958 143a
000000a0: 8614 203a 7e69 253a 4142 0e3a 16f6 113a
000000b0: 1c78 1c3a 1dd4 c839 d0b6 e539 6d99 f439
000000c0: 2c48 cc39 eda3 ea39 2c01 f639 fa6d dc39
000000d0: c085 e539 d2ca e739 0b5a 833b 218f 853b
000000e0: 84af 873b 347d 823b c7fc 863b 3e3e 893b
000000f0: 4498 813b 5d72 863b 4668 873b 0ea0 a93b
00000100: bc10 a93b 9736 a83b 1ac0 a73b 5ecf a83b
00000110: 38ae a93b 1803 a73b a94b a83b 7d05 a93b
00000120: b023 403b d772 3d3b fe3c 3b3b 0cd4 3b3b
00000130: dd4e 393b 8ab2 373b 528e 353b 05ab 353b
00000140: fe32 353b ae0a c13b 6caa bf3b 3c43 bd3b
00000150: 2cb6 c13b b249 c13b 82d7 c03b 6581 c13b
00000160: 29cf c13b 340a c13b 95b5 b73b ccf0 b73b
00000170: 50d4 b73b 8262 b83b d4a3 b83b e838 b93b
00000180: 6d9c b83b 15a1 b93b ce88 b93b 01bf d33a
00000190: c827 e23a b152 ed3a ed07 d23a 03f4 db3a
000001a0: 69fb e43a 1d01 d73a be1c dc3a fda3 e33a
000001b0: b605 ca38 f70f c138 174a ae38 5006 d538
000001c0: 6362 aa38 a1f3 d238 1cd0 d638 77bc a838
000001d0: c521 be38 3248 8b38 6d1b 8738 3d18 7738
000001e0: f104 8638 c0be 8238 9200 5438 560e 7c38
000001f0: 2873 4238 2739 6338 9e6f dbb7 097c 7cb8
00000200: 5c6e a1b8 03af 86b8 b872 91b8 e0ae 92b8
00000210: 01b3 b6b8 a48e a2b8 e66b 80b8 9f28 1038
00000220: a2b3 0838 4a03 f837 b806 1a38 8dcc 2a38
00000230: f255 3838 9328 3638 094e 4438 7f7b 0738
00000240: e9de 87b7 f6d3 f1b7 d3eb 91b7 ca8f 8eb7
00000250: 7711 05b8 295a 1eb8 9471 28b8 c6fe 18b8
00000260: bad1 cdb7 40b6 9fb7 f3ec 6eb8 ebb6 e2b8
00000270: b145 3bb8 11c8 c4b8 1c41 d5b8 e7ec b3b8
00000280: 2c4d cab8 fdf1 dbb8 39b0 73ba b781 81ba
00000290: 2410 87ba 7b8d 69ba 755f 7aba 1cb7 84ba
000002a0: 4909 6cba 4a59 74ba e475 80ba ac91 61bb
000002b0: 16ca 63bb 8bb6 63bb 48a5 62bb 43a7 63bb
000002c0: 8734 64bb 8e49 5fbb 020f 5fbb da76 60bb
000002d0: 4683 37bb 722d 3abb 7d92 36bb 4201 3bbb
000002e0: ad6b 3bbb f280 38bb 852c 3bbb 8eb3 3abb
000002f0: b97e 38bb 3e34 003b 7082 f83a 2005 ea3a
00000300: 3037 033b 89ec 023b a260 f53a 0bae 053b
00000310: 628b 033b 9408 fa3a 3165 833a 21bc 5c3a
00000320: 23cd 383a 2bed 893a 320f 733a 2fb9 553a
00000330: bc91 8c3a ecfc 843a e3eb 6b3a 496e 153a
00000340: 56d4 c639 0343 8039 8331 033a 5c86 c139
00000350: 5603 9939 88d9 eb39 a38d bc39 e5a8 a539
00000360: 7699 8138 1ea9 7f38 e188 a938 a4c9 8138
00000370: 63e0 9538 2aec bb38 3e97 ae38 7ce4 a538
00000380: b5ca 9238 6a2e 3238 8a5a 6c36 ebb6 c936
00000390: 0983 2237 2c72 9037 0881 c937 0096 c337
000003a0: 1458 f237 e597 5538 2753 b4b7 4af7 e1b8
000003b0: 2a58 07b9 e842 c6b8 5106 05b9 be07 0db9
000003c0: dacc f3b8 96c8 ffb8 c79c 18b9 a808 6039
000003d0: b1f7 8239 c9d4 8139 513c 5e39 e2cc 5b39
000003e0: 0cc7 7e39 8798 4e39 93cb 5b39 fb2e 7e39
000003f0: feed 183a d69a 233a 1e44 273a 4f84 113a
0.00089244975 0.0008081891 0.00055193057 0.00093176356 0.0008018815 0.0005455533 0.00081054564 0.00066724507
0.00042601587 -0.0009072686 -0.0010605645 -0.0012230558 -0.0008892647 -0.0010328529 -0.0012134623 -0.0009431325
-0.0010785594 -0.001202596 -0.00066097634 -0.000804562 -0.0009188999 -0.00069611624 -0.00084569224 -0.000931707
-0.0008243609 -0.0009136921 -0.00094570644 -0.00020046633 -0.00020421516 -0.00015467234 -0.00023214334 -0.0002046717
-0.00018839886 -0.00023435417 -0.00023402357 -0.00018433304 0.00057745073 0.0006340596 0.00066987245 0.0005658917
0.0006106574 0.000630997 0.0005426743 0.00055679807 0.00059688254 0.0003830501 0.0004381449 0.00046653618
0.00038963684 0.00044754092 0.0004692165 0.0004204361 0.00043777935 0.00044210866 0.0040085367 0.0040759
0.004140796 0.0039822105 0.004119489 0.004188328 0.003954919 0.0041029886 0.0041323034 0.0051765507
0.0051594656 0.0051334607 0.005119336 0.005151673 0.005178239 0.0050968044 0.0051359725 0.005158125
0.0029318146 0.0028907561 0.002857029 0.0028660325 0.0028275766 0.0028030002 0.0027703238 0.0027720344
0.0027648802 0.0058911657 0.0058491733 0.005775837 0.005911609 0.0058986777 0.0058850655 0.0059053176
0.005914588 0.005891109 0.005606363 0.005613422 0.0056100264 0.0056269774 0.005634764 0.0056525357
0.005633882 0.0056649544 0.0056620603 0.0016154946 0.0017254287 0.0018106309 0.0016024091 0.0016781095
0.0017469946 0.001640353 0.0016793234 0.0017367598 9.633174e-05 9.205931e-05 8.310767e-05 0.00010157807
8.124558e-05 0.0001005896 0.000102430786 8.0459686e-05 9.066196e-05 6.641484e-05 6.44241e-05 5.8911963e-05
6.390538e-05 6.234413e-05 5.054527e-05 6.0094833e-05 4.6360452e-05 5.4174245e-05 -2.615881e-05 -6.0197e-05
-7.697634e-05 -6.4222164e-05 -6.935507e-05 -6.9943955e-05 -8.711778e-05 -7.751331e-05 -6.123613e-05 3.4370107e-05
3.2592223e-05 2.9565435e-05 3.672272e-05 4.072166e-05 4.394906e-05 4.342997e-05 4.6802717e-05 3.2301523e-05
-1.6197055e-05 -2.882814e-05 -1.7395161e-05 -1.6994676e-05 -3.1725936e-05 -3.7754104e-05 -4.01601e-05 -3.64769e-05
-2.4535566e-05 -1.9039144e-05 -5.6964298e-05 -0.00010810591 -4.464918e-05 -9.3832736e-05 -0.00010168759 -8.5795116e-05
-9.646485e-05 -0.000104878076 -0.00092959736 -0.0009880577 -0.0010304493 -0.0008909327 -0.00095509674 -0.0010125372
-0.0009004069 -0.00093211664 -0.0009800759 -0.0034419103 -0.0034757904 -0.0034746255 -0.0034583379 -0.0034737147
-0.0034821348 -0.0034070942 -0.0034036045 -0.0034250529 -0.002800183 -0.0028408435 -0.002785831 -0.0028534685
-0.0028598115 -0.002815303 -0.0028560471 -0.002848837 -0.0028151704 0.0019562389 0.0018959772 0.001785431
0.0020021908 0.0019977412 0.0018720815 0.0020397927 0.0020072092 0.0019076043 0.0010024664 0.00084203674
0.0007049611 0.0010522952 0.00092719786 0.00081528997 0.0010724585 0.0010146177 0.00089996884 0.00057003327
0.00037923706 0.0002446399 0.0005004631 0.00036911934 0.0002918492 0.00044984766 0.00035963682 0.0003159709
6.179784e-05 6.095424e-05 8.084044e-05 6.188758e-05 7.146669e-05 8.960844e-05 8.3251376e-05 7.910372e-05
6.99958e-05 4.2481734e-05 3.521944e-06 6.0115613e-06 9.686461e-06 1.7219303e-05 2.4021152e-05 2.331566e-05
2.8889663e-05 5.092462e-05 -2.1496393e-05 -0.00010774897 -0.00012907447 -9.453838e-05 -0.00012686221 -0.00013449692
-0.000116252995 -0.000121967096 -0.00014554254 0.0002136553 0.00024980077 0.00024763335 0.0002119404 0.00020961792
0.00024297478 0.00019702512 0.00020961305 0.00024240829 0.00058338034 0.0006241029 0.00063806947 0.00055510266

exp_avg_sq f4 [64, 3, 3, 3]
00000000: 3d7a b837 42c2 b937 1d8a b637 ee65 be37
00000010: c913 bf37 5456 bb37 f998 be37 9ca0 be37
00000020: 0151 bb37 05c2 0d38 a802 0d38 85c6 0d38
00000030: be26 0c38 ee72 0b38 1443 0c38 8e81 0c38
00000040: cdc0 0b38 36e5 0c38 41d6 4438 f320 4438
00000050: 6fb1 4338 9521 4338 5496 4238 177f 4238
00000060: edf6 4138 7f5d 4138 2601 4238 7223 0537
00000070: 1bc7 0737 349d 0737 cd62 0837 042c 0a37
00000080: b6b1 0937 40c7 0937 c8d2 0a37 866a 0937
00000090: a61d cd37 095d cd37 a0c4 cc37 806c cd37
000000a0: da7b cd37 01e3 cc37 ea11 cd37 1f29 cd37
000000b0: b111 cc37 41d2 0438 98b4 0438 2e5b 0438
000000c0: 7bd3 0438 6197 0438 d242 0438 4596 0438
000000d0: 9056 0438 34f0 0338 0ef7 8737 53fa 8637
000000e0: cfd7 8437 becf 8637 7384 8537 c6d3 8237
000000f0: 2fd7 8237 a774 8137 8c0f 7d37 bc7a 5b37
00000100: 4c61 5837 86f6 5637 5e35 5837 7d84 5537
00000110: a06d 5537 a7a9 5737 ff59 5537 3815 5637
00000120: 1565 4637 4b0a 4637 beb9 4537 9305 4637
00000130: 5098 4637 be5a 4837 2b70 4737 1bde 4837
00000140: 4d18 4c37 adf6 063b 7786 053b b48d 033b
00000150: 30ea 083b 2bd2 073b c25d 063b 3fcb 093b
00000160: 5b0e 093b 9a20 083b acb6 0b3b f415 0a3b
00000170: d11b 083b ecb1 0d3b f0c5 0c3b c37d 0b3b
00000180: cc0b 0e3b 9b08 0e3b 5aa5 0d3b ae07 9f38
00000190: cb7f c938 7aaa 0139 202f 8238 9322 a338
000001a0: 0022 d238 ec6e 6438 354d 8838 1d14 aa38
000001b0: 0156 2c33 99d6 2933 777f 3133 10eb 2433
000001c0: a6be 1f33 ded1 2a33 f5ea 2733 0a6a 2233
000001d0: f82f 2c33 fe73 2935 2858 2635 df85 2d35
000001e0: 3423 2135 7f13 1e35 0437 2435 095f 2035
000001f0: fce7 1d35 3b2f 2435 2997 aa35 ba8c ab35
00000200: 7b9e b535 cac4 a335 7aad a335 6b2c ac35
00000210: d8dc a335 4061 a335 f3d8 ab35 499b 0c33
00000220: 3d24 0a33 e565 0e33 0321 0733 ace6 0533
00000230: 7f9d 0a33 3548 0833 ae5c 0733 82ab 0733
00000240: 696a 5c34 c13b 5534 600e 5f34 3e4c 4b34
00000250: fc9c 4534 5393 4d34 cd56 4734 d23b 4234
00000260: a544 4934 a636 2035 9d3e 1e35 c815 2435
00000270: 8c9c 1735 be1c 1535 5d1a 1a35 a046 1535
00000280: 2cab 1235 8821 1735 459f 4438 0f82 4238
00000290: 3db2 4038 2a29 4838 be3b 4638 019b 4338
000002a0: 10ee 4938 27eb 4838 018e 4638 4384 1739
000002b0: b209 1639 2600 1439 9b62 1839 3ac9 1639
000002c0: 7972 1439 0642 1839 07f9 1639 1105 1539
000002d0: 009e 1d39 eb33 1c39 37e2 1939 9875 1e39
000002e0: d519 1d39 f562 1a39 1749 1e39 ce4b 1d39
000002f0: 9004 1b39 696e 8c39 4d98 8d39 3b75 8e39
00000300: 306c 8a39 f725 8b39 4c33 8c39 ca6c 8839
00000310: 28de 8839 626e 8939 e9ad a139 085c a239
00000320: a5cf a339 5c3a 9e39 18e2 9e39 b744 a039
00000330: cbcb 9b39 0a34 9c39 313e 9d39 4af4 5139
00000340: bb0e 5039 4480 4e39 244f 5139 44a8 4e39
00000350: 32b6 4c39 9889 5139 be42 4e39 6fbe 4b39
00000360: 1fc2 1c33 4785 1c33 1d35 2f33 44f1 1633
00000370: 0058 1833 3a94 2933 1d8b 2333 516f 2333
00000380: adb4 3033 565e 7735 b606 7135 4478 7b35
00000390: cf1e 6e35 ee03 6935 504f 7335 0638 7235
000003a0: 3ff2 6e35 1dae 7a35 4360 1436 c677 1336
000003b0: ef57 1b36 151b 1036 0330 0f36 9e77 1636
000003c0: 24f4 1236 0a5d 1236 adaf 1936 824e 2637
000003d0: 21ad 2537 5fad 2337 64c8 2637 5fff 2537
000003e0: 8c9f 2337 58b4 2537 a642 2537 f2ca 2237
000003f0: 0f2d 1938 e040 1938 f54f 1938 b823 1938
2.1991431e-05 2.2144177e-05 2.1760405e-05 2.269723e-05 2.2778187e-05 2.2332337e-05 2.2720998e-05 2.2724555e-05
2.2329858e-05 3.3797714e-05 3.3619493e-05 3.3801905e-05 3.3414683e-05 3.324722e-05 3.3441072e-05 3.349926e-05
3.3319742e-05 3.359207e-05 4.692958e-05 4.6760728e-05 4.665687e-05 4.65229e-05 4.639321e-05 4.6371566e-05
4.6244753e-05 4.610186e-05 4.6254274e-05 7.9356705e-06 8.092985e-06 8.083229e-06 8.1292355e-06 8.235689e-06
8.207213e-06 8.212228e-06 8.274517e-06 8.190638e-06 2.445171e-05 2.4481227e-05 2.4410256e-05 2.4488429e-05
2.4495577e-05 2.4424402e-05 2.4446246e-05 2.4457053e-05 2.4326933e-05 3.1667067e-05 3.1639443e-05 3.155617e-05
3.166821e-05 3.1612235e-05 3.1533484e-05 3.1611202e-05 3.155187e-05 3.145654e-05 1.6208298e-05 1.6090611e-05
1.583612e-05 1.6070782e-05 1.5916512e-05 1.5595822e-05 1.559741e-05 1.5432319e-05 1.5083595e-05 1.30819935e-05
1.2897257e-05 1.2812792e-05 1.2887029e-05 1.2726637e-05 1.2721313e-05 1.2854499e-05 1.2716743e-05 1.2760334e-05
1.1825255e-05 1.1804116e-05 1.17853615e-05 1.18030175e-05 1.1837183e-05 1.19420565e-05 1.188744e-05 1.1972642e-05
1.21650055e-05 0.0020593808 0.0020374337 0.0020073475 0.002089154 0.0020724635 0.0020502661 0.0021025685
0.0020913098 0.0020771385 0.0021318598 0.0021070214 0.0020768533 0.0021620942 0.0021480285 0.0021284677
0.0021674512 0.002167261 0.002161345 7.583141e-05 9.60823e-05 0.00012365906 6.207661e-05 7.7788856e-05
0.00010019913 5.446274e-05 6.499366e-05 8.109978e-05 4.012509e-08 3.9543554e-08 4.1326953e-08 3.8398014e-08
3.7193466e-08 3.9772083e-08 3.909641e-08 3.7815006e-08 4.0090498e-08 6.3126197e-07 6.1968103e-07 6.464233e-07
6.00284e-07 5.888796e-07 6.117482e-07 5.974294e-07 5.882464e-07 6.116349e-07 1.270998e-06 1.278145e-06
1.3531675e-06 1.220172e-06 1.2194935e-06 1.2827926e-06 1.220872e-06 1.217275e-06 1.2803633e-06 3.273752e-08
3.2163587e-08 3.3154624e-08 3.146216e-08 3.117627e-08 3.227387e-08 3.173064e-08 3.151643e-08 3.1588122e-08
2.0527808e-07 1.9858909e-07 2.0773723e-07 1.8933585e-07 1.8404165e-07 1.9145709e-07 1.8564897e-07 1.808942e-07
1.8744556e-07 5.968417e-07 5.89507e-07 6.1126457e-07 5.647969e-07 5.554865e-07 5.7407834e-07 5.56096e-07
5.4638326e-07 5.630068e-07 4.6878373e-05 4.637433e-05 4.5942365e-05 4.7722053e-05 4.7262518e-05 4.663598e-05
4.8143847e-05 4.790272e-05 4.733913e-05 0.00014449754 0.00014308727 0.00014114435 0.00014532583 0.00014380077
0.00014157024 0.00014520445 0.00014397885 0.00014211635 0.00015031546 0.0001489666 0.00014675489 0.00015111861
0.0001498231 0.00014723449 0.00015095282 0.00015000926 0.00014783652 0.00026785143 0.0002700709 0.00027171694
0.00026402017 0.00026540432 0.000267411 0.00026020996 0.0002610546 0.00026212918 0.00030837886 0.00030967616
0.0003124449 0.0003017959 0.0003030456 0.00030568775 0.0002971574 0.0002979341 0.0002999171 0.00020022798
0.00019841913 0.00019693474 0.00019961275 0.00019708375 0.00019522829 0.00019983051 0.00019670554 0.0001943053
3.6498133e-08 3.6442795e-08 4.079367e-08 3.5144026e-08 3.5470293e-08 3.948319e-08 3.8077918e-08 3.8052637e-08
4.1142517e-08 9.215195e-07 8.978926e-07 9.3679796e-07 8.870674e-07 8.680498e-07 9.063997e-07 9.023355e-07
8.9014424e-07 9.3385626e-07 2.210975e-06 2.1974424e-06 2.3147984e-06 2.1473436e-06 2.1336607e-06 2.2421368e-06
2.1897804e-06 2.1809851e-06 2.2901033e-06 9.91265e-06 9.875076e-06 9.755923e-06 9.941028e-06 9.894225e-06
9.7527045e-06 9.876756e-06 9.850284e-06 9.703204e-06 3.6520007e-05 3.6538462e-05 3.655251e-05 3.651131e-05

exp_avg f4 [64]
00000000: b10b 53ba 5fa9 f339 b2dc b63b 0703 b63b
00000010: ea50 0839 3c74 a6b9 02ec 8bbb c4bd 6c3a
00000020: 3ca9 dfb9 d711 033a 7dd8 25b9 622f 3abb
00000030: c1e5 5bb9 0795 bc38 4a7d fcba 5c2f 9d39
00000040: 91b0 ff3a 0000 0000 b732 7bb7 e4d7 30b5
00000050: ce27 dab5 059f db3a 0082 e8b9 82cf 323b
00000060: fd72 2fba e316 a3b9 39d4 7ab9 ce88 a1b9
00000070: ace6 a1b9 140e 03bb 2b10 623b f869 9538
00000080: fad4 b23a da86 36b9 c270 073a cce3 7e39
00000090: 2af1 90b9 2d33 e13a efbd 7cb9 68be 0b37
000000a0: 0593 eab9 a119 c09b a063 929a 4b5c b1b8
000000b0: 461d 0cb9 6258 0cb9 3c96 adba 79ba 59b8
000000c0: fc28 133b a786 c3b8 eefc 133c 0133 0cb9
000000d0: 74a0 583a 2209 afba c898 ed3a 1f1b 593b
000000e0: 1ae4 2039 7238 803a 0741 9638 dc06 60bb
000000f0: 684a 533b 8153 0fbb 4ac7 d33a 58e6 a4b9
-0.00080507534 0.00046474763 0.005580508 0.00555456 0.00013000114 -0.0003174859 -0.0042700777 0.0009030963
-0.00042659964 0.0004999912 -0.00015816274 -0.002840959 -0.00020971058 8.992297e-05 -0.0019263413 0.0002998066
0.0019507577 0.0 -1.4972574e-05 -6.587927e-07 -1.625385e-06 0.0016755766 -0.00044347346 0.0027284329
-0.0006692855 -0.00031106835 -0.00023920917 -0.0003081024 -0.00030880177 -0.0019997405 0.00344945 7.124612e-05
0.0013643794 -0.00017407109 0.00051666435 0.00024308189 -0.00027645502 0.0017181389 -0.00024103349 8.329378e-06
-0.00044741496 -3.1780298e-22 -6.054514e-23 -8.4572086e-05 -0.00013362346 -0.00013384366 -0.0013243626 -5.1910498e-05
0.0022454849 -9.3234055e-05 0.009032471 -0.00013370441 0.00082636555 -0.0013354162 0.0018127197 0.0033127738
0.00015343764 0.0009782447 7.16467e-05 -0.0034183776 0.0032240395 -0.002186984 0.0016157415 -0.00031452137

exp_avg_sq f4 [64]
00000000: 3cf2 fe37 db56 9438 4402 9537 1eca 223b
00000010: 7570 b838 f38c fa37 c3db 7539 329b 9839
00000020: 0450 0b39 6ee3 d038 7e03 0436 b808 5f39
00000030: bd87 5437 a6e6 7236 168b 9e37 6bc6 a237
00000040: 19e3 4438 ce50 f429 daa3 5036 c875 6d30
00000050: 412e 2030 1ce6 e738 be06 0838 dfe7 9038
00000060: c5d7 8d37 dba7 6f37 9547 dd36 8742 ca37
00000070: 67d1 1737 df8b 3338 2d37 f538 23d2 9237
00000080: d3cc 4c38 e225 a736 a685 3038 415b 3237
00000090: a25d a038 efe1 663a d42b 093b 5f71 9336
000000a0: 8fc0 3a38 025e df2a aa4c 2b2b 4b4d 0c35
000000b0: dbb9 1238 cdb2 d639 d507 ff38 be62 ac36
000000c0: 076d b638 2275 4b37 33de 6c39 2d97 7736
000000d0: 3cf2 8a37 9652 1b39 47ea e037 9302 cc38
000000e0: c127 4238 57b5 5738 fe1b 5933 1774 f138
000000f0: 89c5 ff38 e0aa 3a3a 5963 4c38 6010 9737
3.0391959e-05 7.073368e-05 1.776324e-05 0.002483971 8.7947505e-05 2.9867957e-05 0.00023446888 0.0002910733
0.00013285881 9.960575e-05 1.9671565e-06 0.00021270185 1.2667789e-05 3.6195065e-06 1.8899835e-05 1.94043e-05
4.6941543e-05 1.0849794e-13 3.108979e-06 8.6387475e-10 5.827339e-10 0.000110577996 3.2431206e-05 6.9096444e-05
1.6908985e-05 1.4284592e-05 6.5946465e-06 2.4111256e-05 9.049057e-06 4.280719e-05 0.00011692788 1.7502409e-05
4.8828148e-05 4.981398e-06 4.208614e-05 1.06308735e-05 7.646835e-05 0.00088074704 0.0020930665 4.3941395e-06
4.452519e-05 3.9677989e-13 6.0857797e-13 5.226654e-07 3.4982204e-05 0.00040950478 0.00012160806 5.1374946e-06
8.698744e-05 1.2127015e-05 0.0002258949 3.6893864e-06 1.6563681e-05 0.00014812718 2.6811975e-05 9.7279575e-05
4.6290228e-05 5.142888e-05 5.054971e-08 0.00011513399 0.00012196141 0.0007120799 4.8729915e-05 1.8008228e-05

exp_avg f4 [3, 64, 3, 3]
00000000: 8810 7e38 fee4 a938 9a1d 2437 f400 1ab9
00000010: 4c2b 6db9 f8ef 25b9 ba19 7fb9 9e43 17b9
00000020: 9677 8eb8 53de 5dba 7be0 76ba 8e59 4dba
00000030: 0125 6fba f76b 72ba bc8e 5aba 8f7b 5dba
00000040: 98ec 5dba 89ba 5eba 8be4 cfb9 340a c5b9
00000050: d853 23b9 04cb c8b9 320a fdb9 6cf8 bcb9
00000060: a6c7 98b9 edb8 abb9 12ed 86b9 547f 2f39
00000070: 9e5c 6939 3bf0 9439 f9c3 5239 67dd 7639
00000080: 07f7 9939 e5b7 a839 32cf b339 2448 a539
00000090: 3928 0bb9 418c f3b8 be07 cbb8 f34a f7b8
000000a0: c785 e1b8 aebe b4b8 9865 cab8 c8be bfb8
000000b0: 9d85 96b8 0bdc afb8 5ce8 90b8 9519 0ab8
000000c0: 3296 89b8 6d4d 5bb8 04b4 dab7 c21e 29b8
000000d0: 1765 12b8 645b b7b7 9f0b 5f38 ce51 d638
000000e0: ccdc 07b8 5ea7 1138 9c98 fa37 3453 efb8
000000f0: 7a22 e937 6ae1 62b8 caac 15b9 3165 8339
00000100: d066 4139 035b 2735 935c f738 03ff b238
00000110: 8a26 e538 7759 b939 6b32 9e39 eb15 6f39
00000120: 04fa d7b8 5b70 bdb8 6514 8eb8 c40c c8b8
00000130: a7e9 b7b8 ba0c 97b8 8c95 b4b8 0585 b5b8
00000140: 8ab4 9ab8 f4c3 6b39 0830 f338 aae1 f738
00000150: b894 1439 8aa6 40b8 8722 3138 046f 8e38
00000160: cce9 0538 c768 0139 4f4f ea36 6ba5 17b8
00000170: 303f 7139 92f2 26b9 af47 0438 d322 3c38
00000180: f0ab ccb9 717b 18b9 a0c5 c0b8 fe31 2db8
00000190: b0e1 0bb8 9a21 1439 f4be 02b9 0019 25b9
000001a0: 6bdf 87b8 329e 0fb8 ac50 a2b7 9b8f 46b8
000001b0: 6db5 f0b9 4edd 4aba 8f8d 81ba 4706 9bb9
000001c0: 77c7 dab9 5642 21ba 7f02 b5b9 d6b2 e9b9
000001d0: a9df feb9 f799 b639 2d70 e739 bdbf 323a
000001e0: b371 df39 0765 183a 19a1 453a 5880 c439
000001f0: 55ad bd39 e334 123a 035f 2e3a 44f9 fe39
00000200: c9bb 8539 9a0b 0c3a f8aa e039 4f0a c639
00000210: 614a 133a ab88 e639 8382 073a 2b66 083a
00000220: 2cc9 b639 0c98 7539 c70d 203a c833 f239
00000230: 0a5e 3d39 05a4 0c3a 55dc 013a 2bfe 2439
00000240: 5f4d eeb9 d4b6 c1b9 eb17 8cb9 3b1e eeb9
00000250: 523d edb9 269b d7b9 0dcc c8b9 6bc8 dab9
00000260: 4c81 b0b9 0000 0000 0000 0000 0000 0080
00000270: 0000 0000 0000 0080 0000 0000 0000 0000
00000280: 0000 0000 0000 0000 5640 8a39 9848 2239
00000290: 08bd c3b8 426b e138 2b7d 2239 c20e 8738
000002a0: 8f25 35b8 4894 8ab8 7085 4136 c8ba 2433
000002b0: e3c2 4a34 92b3 7234 9923 e331 8ec8 7533
000002c0: bd09 3f34 40af 28b3 8d13 1431 48d4 bc32
000002d0: b3fb 4ea6 7650 2c25 7b35 8127 ac64 aa9a
000002e0: 066d 211c 58f1 c322 0000 0000 f23c 0080
000002f0: cc7e 5f15 5b08 c939 1307 9939 71a2 5839
00000300: 7081 a239 6dde ce39 3819 d139 2064 d239
00000310: df9f af39 9158 9839 0d35 25b9 a051 9eb9
00000320: 19b9 f9b9 c312 c1b8 a084 44b9 1f7b 52b9
00000330: 8bc9 8bb9 09a1 a9b9 8502 35b9 1c82 143a
00000340: 1ebb 073a 0e27 0f3a d479 133a 348c 0b3a
00000350: 006b 0b3a f91a 0d3a 9c34 093a 7b45 0c3a
00000360: 8ecd c4b8 35c6 aeb9 4405 0cba 699c 61b9
00000370: c116 d2b9 0002 e9b9 ede0 48b9 628a acb9
00000380: 2cb7 b6b9 9a9d adb8 9b53 f5b9 d988 22ba
00000390: be31 0c38 84e2 79b9 fd3c e2b9 5a3f 2ab9
000003a0: c7aa 00b9 82b0 5bb9 fae0 5339 5b6d 3d39
000003b0: 6e94 ac38 4397 57b8 5dc5 fab8 1d3c 64b8
000003c0: 2bc8 e6b9 0f58 f8b9 270a b8b9 44ee 09b8
000003d0: 2d07 4b39 9c9e 9b39 097d 64b8 5268 f138
000003e0: c83c 9738 10fa f1b8 7140 c7b8 0f37 73b8
000003f0: e534 d7b8 6104 74b9 1a60 17ba ae87 ccb8
6.0573715e-05 8.101201e-05 9.782054e-06 -0.0001468694 -0.0002261821 -0.00015825022 -0.00024328279 -0.00014425672
-6.793362e-05 -0.000846361 -0.00094176055 -0.0007833474 -0.00091226405 -0.00092476554 -0.0008337309 -0.00084488926
-0.0008465736 -0.0008496424 -0.00039652394 -0.0003758237 -0.00015576126 -0.0003829823 -0.00048263517 -0.00036043243
-0.0002914045 -0.00032753442 -0.00025735103 0.00016736734 0.00022255114 0.00028407745 0.00020100166 0.00023542867
0.00029366484 0.0003218047 0.00034295913 0.00031525 -0.00013271057 -0.00011613267 -9.6812364e-05 -0.00011791838
-0.00010753754 -8.618586e-05 -9.651034e-05 -9.1431255e-05 -7.177445e-05 -8.3856365e-05 -6.9097354e-05 -3.292559e-05
-6.560645e-05 -5.2285777e-05 -2.6071451e-05 -4.0321385e-05 -3.490326e-05 -2.1857857e-05 5.3178166e-05 0.000102195525
-3.239214e-05 3.4726567e-05 2.9873387e-05 -0.00011411906 2.7791819e-05 -5.4092532e-05 -0.00014274116 0.0002506166
0.00018444215 6.234479e-07 0.00011795121 8.535201e-05 0.000109267494 0.00035352606 0.00030173673 0.00022800981
-0.00010298568 -9.03315e-05 -6.7748864e-05 -9.539121e-05 -8.769641e-05 -7.2026116e-05 -8.610924e-05 -8.6555294e-05
-7.37692e-05 0.00022484345 0.000115960895 0.00011819911 0.00014169782 -4.593147e-05 4.2232245e-05 6.791766e-05
3.192741e-05 0.00012341431 6.982976e-06 -3.6155263e-05 0.0002300709 -0.00015921358 3.1538013e-05 4.4855125e-05
-0.00039038016 -0.00014541835 -9.192084e-05 -4.1292973e-05 -3.335037e-05 0.00014126897 -0.00012468902 -0.0001574494
-6.4789165e-05 -3.4241188e-05 -1.934947e-05 -4.734062e-05 -0.0004591154 -0.00077386654 -0.0009884107 -0.0002956858
-0.00041728813 -0.00061515474 -0.0003452487 -0.00044574466 -0.00048613295 0.00034828458 0.0004414333 0.00068187324
0.00042618587 0.0005813394 0.0007538959 0.00037479657 0.00036178032 0.0005577339 0.0006651731 0.00048632373
0.00025507648 0.0005342305 0.0004285199 0.00037773183 0.00056186883 0.00043970844 0.0005169289 0.00052032125
0.0003486363 0.00023421663 0.00061055686 0.00046196417 0.00018059477 0.0005365017 0.00049537915 0.00015734944
-0.00045452543 -0.00036948046 -0.000267207 -0.0004541742 -0.0004524985 -0.0004112359 -0.00038299002 -0.00041729523
-0.0003366567 0.0 0.0 -0.0 0.0 -0.0 0.0 0.0
0.0 0.0 0.00026369345 0.00015476567 -9.3335344e-05 0.000107488144 0.00015496153 6.4400505e-05
-4.3188742e-05 -6.607972e-05 2.8836912e-06 3.8354102e-08 1.8883615e-07 2.2603334e-07 6.6106165e-09 5.722591e-08
1.7791804e-07 -3.9274937e-08 2.1547948e-09 2.1982615e-08 -7.1811723e-16 1.4945883e-16 3.5862676e-15 -7.0472996e-23
5.341134e-22 5.311039e-18 0.0 -2.1863e-41 4.5134516e-26 0.00038343933 0.00029187705 0.0002065988
0.00030995486 0.00039457102 0.00039882376 0.0004012892 0.00033497714 0.00029057686 -0.00015755389 -0.00030196924
-0.0004763089 -9.206452e-05 -0.00018741423 -0.00020073027 -0.00026662307 -0.00032354172 -0.00017262444 0.000566514
0.0005177724 0.00054608367 0.0005625759 0.0005323321 0.00053183734 0.00053827424 0.00052339747 0.00053509296
-9.384296e-05 -0.00033335542 -0.0005341361 -0.0002151594 -0.00040071274 -0.00044442713 -0.00019157278 -0.000329095
-0.0003485022 -8.2786384e-05 -0.00046792332 -0.00062002015 3.3424927e-05 -0.00023830874 -0.0004315152 -0.00016236064
-0.00012270651 -0.00020951222 0.00020206338 0.00018065183 8.229246e-05 -5.1400868e-05 -0.00011957691 -5.441542e-05
-0.00044018155 -0.00047367855 -0.0003510278 -3.2885247e-05 0.00019362262 0.00029682077 -5.4475884e-05 0.00011511207
7.2115625e-05 -0.00011538353 -9.5010626e-05 -5.7986992e-05 -0.00010261851 -0.00023271285 -0.0005774513 -9.75275e-05
