work_dir/DNnet/UIEB/20250319/122851/best_ssim_model.pth (torch, 59798 bytes, 24 tensors)

stem0.0.weight f4 [64, 3, 3, 3]
0	0xbb40b201	-0.0029402974
1	0x3dbb937e	0.09158991
2	0xbe17eb2b	-0.14835803
3	0xbe1a01c1	-0.15039732
4	0xbdb7bd0d	-0.089716054
5	0x3d57fe7f	0.05273294
6	0xbba8ec4f	-0.0051551233
7	0x3e138a1f	0.14408158
8	0xbb498b5c	-0.003075323
9	0x3d10dab9	0.03536484
10	0xbd9f3267	-0.07773285
11	0xbd3e17b8	-0.04640934
12	0xbe519985	-0.2046872
13	0xbe1d7285	-0.15375717
14	0xbdb6b2fa	-0.08920856
15	0xbbe2d561	-0.0069224094
16	0x3d6794d9	0.056538437
17	0x3ddc46ae	0.107556686
18	0xbde687ad	-0.11256347
19	0xbd8b2340	-0.06793833
20	0x3db1531d	0.08658431
21	0x3e3370fa	0.17523566
22	0xbcbc497a	-0.022984255
23	0x3e270ab0	0.1631267
24	0xbbae89f7	-0.0053265053
25	0x3d2e3fa7	0.042541172
26	0x3e496921	0.1966901
27	0xbe2c0246	-0.16797742
28	0xbde4c6a8	-0.11170703
29	0xbd44c22e	-0.048036747
30	0xbd9214a0	-0.0713284
31	0x3e1a3675	0.15059836
32	0xbde261b0	-0.11053789
33	0xbda8b6b5	-0.082379736
34	0xbdf171ae	-0.11789261
35	0xbe208b1b	-0.15678065
36	0xbdbbf060	-0.09176707
37	0x3e3eb86c	0.18625039
38	0x3de2a7b1	0.11067141
39	0x3de8f736	0.11375277
40	0x3d16ac33	0.036785316
41	0xbd899261	-0.06717373
42	0x3d5c3565	0.05376186
43	0xbe170229	-0.14746918
44	0xbddc2681	-0.107495315
45	0xbda14510	-0.07874501
46	0x3e0d81ca	0.13819042
47	0x3e050fe5	0.12994345
48	0xbd835331	-0.06412352
49	0x3c3a9596	0.011388203
50	0x3e0f2f2e	0.13982841
51	0x3e5170cd	0.20453186
52	0x3dbfcc8d	0.09365187
53	0x3d3a05b8	0.04541561
54	0x3e1af39d	0.15131994
55	0xbdd7ce3c	-0.10537383
56	0x3cb3598d	0.021893287
57	0xbe050400	-0.12989807
58	0xbe15784d	-0.14596672
59	0xbe010fad	-0.12603636
60	0x3db9735c	0.09055206
61	0x3d55bf34	0.0521843
62	0xbe0b9965	-0.13632734
63	0x3d96f4a3	0.073708795
64	0x3daa0afd	0.08302877
65	0xbd9116e6	-0.07084446
66	0x3baf35c1	0.005346984
67	0xbbf835b6	-0.007574762
68	0x3d18af8b	0.037276786
69	0x3e24cf3c	0.16094679
70	0xbe47b5bb	-0.19502918
71	0xbdfd9d3a	-0.12383504
72	0x3ddc0763	0.107435964
73	0x3e366195	0.17810662
74	0x3e33b3d2	0.17549065
75	0x3e440ff2	0.19146708
76	0x3d58942e	0.05287569
77	0xbe198342	-0.14991477
78	0x3d407896	0.04699
79	0xbdca68f0	-0.098832965
80	0xbe1b750d	-0.1518137
81	0x3e394726	0.18093547
82	0x3e1f92cf	0.15583347
83	0xbe1df9df	-0.1542735
84	0x3d855c61	0.065117605
85	0xbae970a9	-0.0017810065
86	0xbc03f2f5	-0.008053531
87	0xbd49678b	-0.049171012
88	0x3dc3cc7e	0.09560488
89	0xbda6f503	-0.08152201
90	0x3d39c2bd	0.045351733
91	0x3d8d0eb5	0.06887571
92	0x3dd8cc5b	0.10585853
93	0x3d5ddb2e	0.054164104
94	0xbe476361	-0.19471504
95	0xbe0d6d29	-0.13811173
96	0x3d9ec28c	0.077519506
97	0x3cc64003	0.024200445
98	0xbe222eff	-0.1583824
99	0xbdf176b7	-0.11790221
100	0x3e1aff57	0.15136467
101	0x3dd2fdb9	0.103023
102	0xbdb3d690	-0.08781159
103	0xbd68f962	-0.056878455
104	0xbe3e55fb	-0.18587486
105	0xbc808a91	-0.015691074
106	0xbe15545d	-0.14582963
107	0xbe1c0ba7	-0.1523882
108	0xbdf57473	-0.119851016
109	0xbdc0c6e6	-0.09412937
110	0xbe2da5a8	-0.16957724
111	0xbd0916ca	-0.033469
112	0xbe407508	-0.18794644
113	0x3b79ea0a	0.0038133883
114	0xbc9eaadd	-0.019368583
115	0xbe5dd2b0	-0.21662402
116	0xbe12ec36	-0.1434792
117	0xbc7f92a6	-0.015598929
118	0xbb57c758	-0.0032925215
119	0x3bc1b07f	0.0059109326
120	0x3d32b006	0.0436249
121	0xbc576f67	-0.013149119
122	0xbdd477e7	-0.10374432
123	0x3d77e2d5	0.06051906
124	0xbe30e207	-0.17273723
125	0xbded3f7c	-0.11584374
126	0xbd6c9de7	-0.057767775
127	0xbdc746d7	-0.097303085
128	0xbda412d0	-0.08011401
129	0xbe1541f6	-0.14575943
130	0xbd45b3ab	-0.048267048
131	0x3c928dca	0.017889876
132	0xbded6170	-0.1159085
133	0xbca39f2d	-0.019973362
134	0x3dd46068	0.103699505
135	0xbde53f41	-0.11193705
136	0xbdc3cd65	-0.0956066
137	0xbde8ff1a	-0.11376782
138	0xbd91af2c	-0.071134895
139	0xbc4016da	-0.011724198
140	0x3cfce680	0.03087163
141	0xbc3ae2af	-0.011406585
142	0x3cfb0423	0.030641621
143	0xbde3af17	-0.1111738
144	0xbe18efb9	-0.14935197
145	0xbdafa1b8	-0.08575767
146	0x3dbb2fdf	0.0913999
147	0xbbf9443b	-0.0076070107
148	0xbdb36b4c	-0.087607
149	0xbe092ac4	-0.1339522
150	0xbe1bc92f	-0.15213464
151	0xbe107a92	-0.14109257
152	0xbd303ada	-0.043024875
153	0x3d86fa96	0.06590764
154	0x3d83ce28	0.064358056
155	0xbe40ee0e	-0.1884081
156	0x3da66824	0.08125332
157	0xbe1a06f4	-0.15041715
158	0xbd6ada16	-0.05733689
159	0xbdaf3db7	-0.08556693
160	0xbd4be336	-0.049777232
161	0xbd51a7b3	-0.05118532
162	0xbe33ed70	-0.17571044
163	0xbe2d30c4	-0.16913134
164	0xbcad2721	-0.021136822
165	0xbc7f269e	-0.015573172
166	0xbdd68fb4	-0.10476628
167	0x3d8c4a45	0.06850103
168	0xbe39da37	-0.18149649
169	0xbcff9149	-0.031197207
170	0x3e25de0a	0.16197982
171	0xbdb998f5	-0.09062377
172	0x3e2502eb	0.16114394
173	0x3d86f77d	0.065901734
174	0xbe40f07e	-0.1884174
175	0x3dd69455	0.10477511
176	0xbce8a293	-0.028397834
177	0xbdcd9374	-0.1003789
178	0x3e0afd24	0.13573128
179	0xbe263b8c	-0.16233653
180	0x3c7012be	0.014652906
181	0xbd3881f8	-0.045045823
182	0x3e07f3ab	0.13276546
183	0x3d44aaa6	0.048014306
184	0x3daef822	0.08543421
185	0x3d824e1f	0.06362557
186	0xbd479765	-0.048728365
187	0xbd3a541d	-0.045490373
188	0xbe2485e0	-0.16066694
189	0x3e09118e	0.13385603
190	0x3e2733a3	0.16328292
191	0x3e182737	0.1485871
192	0xbdca7fff	-0.098876946
193	0x3c7e6380	0.015526652
194	0xbde19d74	-0.1101636
195	0xbd8dfd57	-0.06933086
196	0xbdbb6a35	-0.09151117
197	0x3d9bbaa3	0.076039575
198	0xbdd347b1	-0.103164084
199	0xbb4bb54f	-0.003108341
200	0x3c51d4c8	0.012807079
201	0x3e0246af	0.12722276
202	0xbe19fd81	-0.1503811
203	0xbe070fac	-0.13189572
204	0xbdd6dbea	-0.10491164
205	0x3e027719	0.12740745
206	0xbd8c461a	-0.06849308
207	0x3e3dd7de	0.18539378
208	0x3db963f9	0.090522714
209	0x3d3e56d1	0.046469513
210	0x3cd94388	0.02652146
211	0xbc6ec350	-0.014572933
212	0x3d40afdb	0.04704271
213	0xbc42db55	-0.011893113
214	0x3cd4af67	0.025962545
215	0x3d4ea218	0.050447553
216	0xbe485da3	-0.1956697
217	0xbe2656cc	-0.16244048
218	0x3cc2be17	0.023772283
219	0xbe4c05a2	-0.19924024
220	0xbdc61393	-0.09671702
221	0x3d55ebda	0.05222688
222	0xbd02ce4c	-0.03193502
223	0xbda6c0be	-0.081422314
224	0xbe5a3153	-0.21307878
225	0x3d56fa54	0.052484825
226	0xbe2ad3bf	-0.16682337
227	0xbdc99e25	-0.09844617
228	0xbdbc8655	-0.09205309
229	0xbd85cede	-0.065335974
230	0xbd2ec5e3	-0.04266919
231	0x3dec0420	0.11524224
232	0xbc601347	-0.013676471
233	0x3df32c80	0.11873722
234	0x3d9eb857	0.07750004
235	0xbe191bc9	-0.14952005
236	0x3d24d734	0.040244296
237	0xbe20c19f	-0.1569886
238	0xbddddfff	-0.108337395
239	0x3c8c9f98	0.017165944
240	0x3d024e1a	0.031812765
241	0x3dd968d1	0.10615695
242	0xbdb75829	-0.08952362
243	0xbcd944c1	-0.026522042
244	0x3d0b6399	0.03403053
245	0xbe2109ed	-0.15726443
246	0x3d8efbc0	0.06981611
247	0xbe0f2464	-0.13978726
248	0xbd0bd372	-0.034137197
249	0xbd3f3c10	-0.04668814
250	0xbdc60b01	-0.096700676
251	0xbcae9b4b	-0.021314284
252	0x3e2ad273	0.16681843
253	0xbd36cf61	-0.044631366
254	0xbdc0138f	-0.093787305
255	0xbd50aba6	-0.050944947

stem0.0.bias f4 [64]
0	0x3dd73580	0.10508251
1	0xbe1c2952	-0.15250137
2	0x3d8dcc13	0.0692369
3	0x3e2f0fec	0.17095917
4	0x3e16465a	0.14675274
5	0x3e3d08df	0.18460415
6	0x3e2f50f0	0.17120719
7	0x3c54e01d	0.012992886
8	0x3db2e9a8	0.08735973
9	0xbd801392	-0.06253733
10	0x3e4bfa19	0.19919623
11	0x3e2ece31	0.17070843
12	0xbdcc5010	-0.09976208
13	0x3e30f4d0	0.17280889
14	0x3d379dc7	0.044828203
15	0xbd0b0595	-0.03394087
16	0xbd8417bf	-0.06449842
17	0x000718e6	6.5178e-40
18	0x3d2911e0	0.041276813
19	0xbbe590f1	-0.0070058038
20	0xbc8f8385	-0.017518768
21	0xbdfc2cab	-0.12313207
22	0xbd9b7894	-0.07591358
23	0x3e22e3ae	0.15907165
24	0x3e111bdf	0.14170788
25	0xbd85b22b	-0.065281235
26	0x3cd2ce54	0.02573315
27	0xbce10ac3	-0.027470952
28	0xbd74c8cd	-0.05976181
29	0x3d0590bf	0.032608744
30	0xbd799c88	-0.060940295
31	0x3ddc9cd1	0.10772098
32	0xbddf5d67	-0.10906487
33	0x3d16d71d	0.03682624
34	0xbdef32ba	-0.11679597
35	0xbd6a079f	-0.057136174
36	0x3e244da8	0.16045249
37	0xb981fa18	-0.00024791132
38	0x3bfdab17	0.0077413428
39	0x3e40f926	0.18845043
40	0x3d90b23f	0.07065248
41	0xa4e1c9e3	-9.7920205e-17
42	0xa31cec90	-8.506871e-18
43	0x3d9a9a44	0.07548955
44	0xbd4db81b	-0.050224405
45	0x3da05416	0.07828538
46	0xbc5a1266	-0.013310051
47	0x3e3d0b83	0.18461423
48	0xbdc0a9f0	-0.09407413
49	0xbd48a040	-0.04898095
50	0xbc302a5b	-0.010752286
51	0x3e43a696	0.19106516
52	0x3e468441	0.19386388
53	0x3dbdf443	0.09275105
54	0xbd474fd2	-0.048660107
55	0xbe05141f	-0.12995957
56	0x3dce80d2	0.10083164
57	0xbe0feeed	-0.14055987
58	0xbc812bde	-0.015767988
59	0xbdff8b3e	-0.1247773
60	0xbe4ec52b	-0.20192401
61	0x3e01fff7	0.12695299
62	0x3d80b4a2	0.06284453
63	0x3e37997c	0.17929643

out0.0.weight f4 [3, 64, 3, 3]
0	0xbc1cb0ff	-0.0095636835
1	0x3ceca31f	0.028886376
2	0x3da46726	0.080274865
3	0x3d240c30	0.040050685
4	0x3e0eccc6	0.13945302
5	0x3e145497	0.14485393
6	0x3ddade2c	0.10686907
7	0x3ddd4043	0.108032726
8	0x3dd680fe	0.10473822
9	0xbc99b824	-0.018764563
10	0xbd49a15d	-0.049226154
11	0xbcf9ce76	-0.030493956
12	0xbd6aa58c	-0.057286784
13	0xbc254bb3	-0.010088849
14	0xbd6e34f6	-0.058155976
15	0xbd622712	-0.05521304
16	0xbd8103f5	-0.06299583
17	0x3b6a8c57	0.0035789215
18	0x3d8a28d7	0.06746071
19	0x3da2ba1a	0.07945652
20	0xbce3adc7	-0.027792824
21	0x3db1888b	0.08668622
22	0x3d209b3b	0.03921054
23	0xbc93182a	-0.017955858
24	0x3d398f50	0.04530269
25	0xbb85307c	-0.0040646177
26	0xbd035d40	-0.032071352
27	0xbb6db755	-0.0036272604
28	0xbc312302	-0.010811569
29	0xbcc25706	-0.023723137
30	0x3cad21eb	0.021134337
31	0xbccecfc2	-0.025245551
32	0xbda0b3a4	-0.07846764
33	0xbd00ead2	-0.031473942
34	0xbd04830b	-0.032351535
35	0xbc98f9a6	-0.01867373
36	0x3d729373	0.05922265
37	0x3df1db0a	0.118093565
38	0x3d784ea9	0.06062189
39	0x3d46b8c5	0.048516054
40	0x3d86afe5	0.06576518
41	0x3dadce39	0.084865995
42	0x3db79227	0.08963423
43	0x3d5b745f	0.053577777
44	0x3decd637	0.11564296
45	0x3dac1627	0.08402663
46	0x3d645826	0.055748127
47	0x3db43cf5	0.08800689
48	0x3cbac4cb	0.022798916
49	0x3cff4f75	0.031165818
50	0x3d360c05	0.044445056
51	0x3d1f64c8	0.038914472
52	0x3c6977e4	0.014249776
53	0x3c764b9f	0.015032678
54	0x3cef4134	0.029205896
55	0x3cbe2f5d	0.023215944
56	0x3e12e156	0.14343771
57	0xbd1af1ca	-0.037828244
58	0x3cef22d5	0.029191414
59	0x3de80930	0.113298774
60	0xbc7e4d53	-0.015521365
61	0x3ce28833	0.027652835
62	0x3e1df079	0.15423764
63	0x3dbeb264	0.09311369
64	0x3dc61e1b	0.09673711
65	0x3de3231d	0.11090682
66	0x3daef567	0.085429005
67	0x3dda5377	0.10660451
68	0x3cc617dd	0.0241813
69	0x3d6db130	0.058030307
70	0x3d416898	0.04721889
71	0x3d56e1da	0.052461483
72	0x3d860765	0.06544379
73	0x3d8e02de	0.069341406
74	0x3dbd64a1	0.09247709
75	0x3dd56619	0.10419864
76	0x3df66f20	0.12032914
77	0x3de6d733	0.11271515
78	0x3dff50ef	0.12466609
79	0x3dbd38b5	0.09239332
80	0x3dae7378	0.08518118
81	0xbca0e9cb	-0.019642731
82	0x3984d18f	0.00025333135
83	0xbd4284b0	-0.047489822
84	0xbca0f15b	-0.019646337
85	0xbc91d0a9	-0.017799692
86	0xbcf5ae0b	-0.029990217
87	0xbcffbd96	-0.031218331
88	0x3cf7986e	0.030224051
89	0xbd92c63a	-0.07166715
90	0xbd7134de	-0.05888831
91	0xbd8eb12b	-0.06967386
92	0xbd9f174a	-0.07768114
93	0xbb9341a4	-0.004493909
94	0xbca2d872	-0.0198786
95	0xbd916bab	-0.07100614
96	0x3d8a50fa	0.06753726
97	0x3a5df34e	0.0008466736
98	0x3b0e1252	0.00216784
99	0x3e0de76a	0.13857809
100	0x3e2e29e6	0.1700817
101	0x3caf806a	0.021423537
102	0x3d99cbed	0.07509599
103	0x3e0964ca	0.13417354
104	0x3d6c3f30	0.057677448
105	0x3d49efb2	0.049300857
106	0x3db9c1ef	0.09070193
107	0x3d9eb5ca	0.07749517
108	0x3cc8a317	0.02449183
109	0x3c18904f	0.00931175
110	0xbc80189e	-0.015636738
111	0xbcbd2517	-0.023088975
112	0xbd369769	-0.04457799
113	0xbd84470a	-0.06458862
114	0xbc43141a	-0.011906648
115	0xbd2870da	-0.04112325
116	0xbda99c6f	-0.082817905
117	0x3d96a5eb	0.07355865
118	0x3c8fec55	0.017568747
119	0xbdba636b	-0.09100994
120	0x3d8bf449	0.06833703
121	0xbc60b15b	-0.01371416
122	0xbd453613	-0.048147272
123	0x3db335c3	0.087504886
124	0x3d7a8acd	0.061167527
125	0x3b036a15	0.0020052243
126	0x3d099831	0.033592407
127	0x3d9f3b81	0.07775021
128	0x3d8a240c	0.06745157
129	0x3c30e79b	0.010797407
130	0x3d2613a8	0.04054609
131	0x3d9d4a0c	0.07680139
132	0x3d0d63fc	0.03451918
133	0x3d88ab95	0.06673352
134	0x3c94ba60	0.018155277
135	0x3a844eff	0.0010094343
136	0x3ce24c94	0.027624406
137	0x3d7de5aa	0.061986603
138	0xbd7749c4	-0.060373083
139	0xbcffd458	-0.031229183
140	0x3daff720	0.08592057
141	0x3c644408	0.013932236
142	0x3c85685d	0.016285116
143	0x3dd2516e	0.10269438
144	0x3c305f3b	0.010764892
145	0xbc2c307f	-0.010509609
146	0xbd9a9581	-0.07548047
147	0xbd7107a1	-0.058845166
148	0xbd67e8f0	-0.05661863
149	0xbc970a90	-0.018437654
150	0xbd8046e8	-0.06263524
151	0xbd1b64f1	-0.037938062
152	0xbcce191f	-0.025158463
153	0x00008df5	5.0925e-41
154	0x00008c74	5.0385e-41
155	0x800088c0	-4.9057e-41
156	0x00002415	1.2944e-41
157	0x80008b25	-4.9916e-41
158	0x000089bd	4.9411e-41
159	0x00008a46	4.9603e-41
160	0x00003adc	2.1115e-41
161	0x00008cce	5.0511e-41
162	0xbd33a698	-0.043860048
163	0xbdc9a078	-0.0984506
164	0xbcebde8e	-0.028792646
165	0x3acabeb8	0.0015468216
166	0xbd91f9f4	-0.07127753
167	0xbd490205	-0.04907419
168	0x3dbde010	0.09271252
169	0x3badaf97	0.005300473
170	0xbd8fb113	-0.07016196
171	0x39d1bdaf	0.00040004912
172	0x3b00dee4	0.0019664103
173	0x3b19d816	0.0023474745
174	0x38909c26	6.89554e-05
175	0x3a1c641f	0.0005965847
176	0x3af2746f	0.0018497835
177	0xb9d6896a	-0.00040919642
178	0x37bc413f	2.2441729e-05
179	0x396fcc2b	0.00022868875
180	0xade05cfb	-2.5507143e-11
181	0x2ccd8696	5.8413925e-12
182	0x2f10e677	1.3178601e-10
183	0xa324ad61	-8.927172e-18
184	0x247e4455	5.513535e-17
185	0x2aa1c009	2.8732596e-13
186	0x0000898c	4.9343e-41
187	0x86aa1173	-6.397253e-35
188	0x1e19b6a5	8.1375226e-21
189	0x3ce18370	0.027528495
190	0x3d96f754	0.07371393
191	0x3dc86d1e	0.097864375
192	0x3d9dfcb7	0.07714217
193	0x3d06cdba	0.03291104
194	0x3d7c87f5	0.061653096
195	0x3c4a998f	0.012365713
196	0x3d808790	0.062758565
197	0x3dd6b2e4	0.104833394
198	0x3d2b6fb4	0.041854575
199	0x3cc55a17	0.02409081
200	0x3d1583c7	0.036502626
201	0x3d81b5bb	0.063334905
202	0x3b1f08b3	0.002426666
203	0xbc000ac4	-0.007815067
204	0x3d9e347d	0.07724855
205	0x3d1993cb	0.037494462
206	0xbd479004	-0.04872133
207	0x3db14f2b	0.08657678
208	0x3e02387d	0.12716861
209	0x3d4e20f6	0.050324403
210	0x3d350dc6	0.04420259
211	0x3d9c4d0f	0.07631885
212	0x3d0bb75e	0.03411042
213	0x3b177016	0.002310758
214	0x3c2ce89e	0.010553507
215	0xbc33b0d8	-0.010967456
216	0xbdde5c4a	-0.108574465
217	0x3d9e5948	0.07731873
218	0x3dcd2247	0.100163035
219	0xbd26ba76	-0.040705167
220	0x3cbad2da	0.02280562
221	0x3dda6e70	0.106655955
222	0xbc907d52	-0.017637882
223	0x3ce1796d	0.02752372
224	0x3d3b1c88	0.045681506
225	0x3bb41772	0.005495959
226	0xbc9feb45	-0.019521365
227	0xbc47c016	-0.012191793
228	0xbd989437	-0.07450145
229	0xbd7bb87b	-0.06145523
230	0xbc9b46d7	-0.018954678
231	0xbcad6d78	-0.021170363
232	0xbd296be2	-0.04136265
233	0xbd48a2b1	-0.04898328
234	0xbdb96014	-0.090515286
235	0xbe16d194	-0.14728385
236	0xbe0a637f	-0.13514517
237	0x3d0ce5b0	0.034398735
238	0xbb8c34a3	-0.0042787357
239	0xbcc3a150	-0.02388063
240	0x3e0d975b	0.13827269
241	0x3e150397	0.1455215
242	0x3d3132e8	0.04326144
243	0xbc9ebfda	-0.019378591
244	0xbdc04b7d	-0.09389398
245	0xbe1531dd	-0.14569803
246	0x3cf1dc2a	0.029523928
247	0xbd7ee12e	-0.062226467
248	0xbd8bb27c	-0.068211526
249	0x3d376fb2	0.044784255
250	0x3d40ebdd	0.047099937
251	0x3cf93ccc	0.030424498
252	0xbc150a4f	-0.009096696
253	0xbc486392	-0.012230771
254	0x3ddd8bd1	0.108176835
255	0xbd46ef56	-0.048568092

out0.0.bias f4 [3]
0	0x3cd51bd0	0.026014239
1	0xbb1bdead	-0.0023783848
2	0xbd86164e	-0.06547223

stem1.0.weight f4 [64, 3, 1, 1]
0	0xbe3afd19	-0.18260612
1	0xbda6abd0	-0.081382394
2	0x3e4332f6	0.19062409
3	0x3dc71a12	0.097217694
4	0x3f00b646	0.5027813
5	0x3ddd83cb	0.10816153
6	0xbe6fc593	-0.23415212
7	0xbe2fb130	-0.17157435
8	0xbeebb468	-0.46036077
9	0xbe734a3e	-0.2375879
10	0x3e219cf7	0.15782534
11	0xbcecaf12	-0.028892074
12	0xbee22450	-0.4416833
13	0xbedf77a3	-0.43645963
14	0x3e64d4f6	0.22346863
15	0xbec0f4ca	-0.3768676
16	0xbecae1a1	-0.39625266
17	0xbe9cc2fe	-0.30617517
18	0x3f1282e9	0.57231003
19	0xbdc825de	-0.097728476
20	0xbe5f8d90	-0.21831346
21	0xbe4d7786	-0.20065126
22	0x3ed435a2	0.4144717
23	0xbd1a57af	-0.037681278
24	0x3e0dfd6c	0.13866204
25	0x3e350ee7	0.17681466
26	0x3e400a87	0.18754016
27	0x3ead415c	0.33838928
28	0x3ca56bc9	0.020192998
29	0x3dc29f05	0.09502987
30	0xbd24f739	-0.040274832
31	0xbed3b2f3	-0.41347465
32	0xbda1f414	-0.07907882
33	0x3f192378	0.59819746
34	0xbea84314	-0.32863677
35	0xbe928865	-0.28619686
36	0xbf0a4941	-0.54018027
37	0x3d8ae854	0.06782594
38	0xbf0c1c4e	-0.5473069
39	0xbe8f33b1	-0.27969125
40	0x3f0367ea	0.51330435
41	0x3e36840b	0.17823808
42	0x3ea4dc3d	0.32199278
43	0x3de9b2fb	0.11411091
44	0xbee03cfa	-0.4379652
45	0xbe2788c7	-0.1636077
46	0xbed92db3	-0.42417678
47	0xbea55e88	-0.32298684
48	0x3e62cb0f	0.22147773
49	0xbd996e78	-0.07491773
50	0x3ef48b86	0.47762698
51	0xbec6fb28	-0.38863492
52	0xbef4d7be	-0.47820848
53	0x3f0f2d10	0.55928135
54	0xbef7331c	-0.4828118
55	0x3ee57926	0.4481899
56	0x3df52acd	0.11971054
57	0xbf0c9f5c	-0.54930663
58	0x3effce3d	0.49962035
59	0xbe03f848	-0.1288768
60	0xbdb7f885	-0.08982948
61	0xbea99228	-0.3311932
62	0xbed3c85c	-0.413638
63	0x3cb4d421	0.022073807
64	0xbf185c08	-0.5951543
65	0x3e2d5cee	0.16929981
66	0xbe0ea53e	-0.13930222
67	0x3e43b86f	0.19113325
68	0xbdf59565	-0.11991385
69	0x3e4d1d04	0.200306
70	0x3c35ed2f	0.011103912
71	0x3e5b02bc	0.21387762
72	0xbe93cc82	-0.28866965
73	0xbee365d5	-0.4441363
74	0x3d84cc51	0.06484283
75	0xbeb6126a	-0.35560924
76	0xbeb83212	-0.359757
77	0xbf023dc7	-0.50875515
78	0xbe3442c2	-0.17603591
79	0xbebb2f45	-0.365595
80	0x3edff655	0.43742624
81	0x3ec4c964	0.384349
82	0x3e39359e	0.1808686
83	0x3ee26637	0.4421861
84	0x3e9df6e8	0.30852437
85	0xbef6842d	-0.48147717
86	0x3ae05b2b	0.0017117014
87	0xbda3ddad	-0.08001266
88	0xbea9fbb6	-0.33199853
89	0x3e17a02e	0.14807197
90	0xbe1bab78	-0.15202129
91	0xbe81b909	-0.25336483
92	0xbcc9ac12	-0.024618182
93	0xbea44fd0	-0.32092142
94	0x3f039d0e	0.5141152
95	0x3eb557f8	0.35418677
96	0x3ee9f05e	0.45691198
97	0xbe3136ce	-0.17306063
98	0x3e170d7c	0.14751238
99	0xbb91013d	-0.0044251964
100	0xbedd974b	-0.4327949
101	0x3e8adf27	0.27123377
102	0xbec5fcd9	-0.3866947
103	0xbe765505	-0.2405587
104	0xbe8461de	-0.25855917
105	0xbefe1739	-0.49627092
106	0x3c9988d5	0.018742004
107	0x3dd0d800	0.10197449
108	0x3c752ced	0.014964324
109	0x3ee4beb2	0.4467674
110	0x3d174256	0.036928497
111	0xbdb7b7a6	-0.08970575
112	0xbe95ef8c	-0.29284322
113	0xbeaeec75	-0.34164777
114	0xbe13b5c2	-0.14424804
115	0xbe9fdc5b	-0.31222805
116	0xbecdee4e	-0.40220875
117	0xbdd9ab67	-0.106283955
118	0xbe1b1869	-0.1514603
119	0xbea38fd8	-0.31945682
120	0x3edf84fe	0.43656152
121	0x3f0b2b8d	0.5436333
122	0xbead64b3	-0.3386589
123	0x3e8df4f5	0.2772595
124	0xbe689ac2	-0.22715285
125	0xbd583d57	-0.052792873
126	0x3ee8a180	0.45435715
127	0x3cdb5446	0.026773583
128	0xbf12f42f	-0.57403845
129	0x3f0093c2	0.5022546
130	0xbd34c387	-0.044131782
131	0xbe999529	-0.29996613
132	0xbebbecc3	-0.36704072
133	0x3ed272aa	0.41103107
134	0xbd12e4fe	-0.035862915
135	0x3ea5abf8	0.32357764
136	0x3ec93ac7	0.39302656
137	0xbe54daea	-0.20786634
138	0x3d73761f	0.05943882
139	0xbeaeb312	-0.34120995
140	0x3f068c9e	0.52558315
141	0xbe747a24	-0.23874718
142	0x3ed590a4	0.41711915
143	0x3e418ea3	0.18902068
144	0x3eafb608	0.34318566
145	0xbec8debe	-0.3923244
146	0xbc4bd842	-0.012441697
147	0x3ea78aa9	0.32722977
148	0x3d2628ce	0.040566258
149	0x3d2be905	0.04197027
150	0x3e8d21ad	0.27564755
151	0xbeb4d8c2	-0.35321623
152	0xbdb83659	-0.08994741
153	0x3e950fe3	0.29113683
154	0x3ea6f58a	0.32609206
155	0x3ef0a468	0.47000432
156	0xbdbc4858	-0.09193486
157	0x3e0d3e0f	0.13793205
158	0xbe67b038	-0.22625816
159	0xbd05d9bc	-0.03267835
160	0xbe55d0e4	-0.20880467
161	0x3edd864d	0.43266526
162	0x3d739c7c	0.059475407
163	0x3e82044e	0.2539391
164	0x3ea7b380	0.32754135
165	0xbd4b7e22	-0.049680836
166	0xbd1aa4a7	-0.03775468
167	0xbdbb4b0b	-0.09145173
168	0xbf00e352	-0.50346863
169	0x3cdc0255	0.02685658
170	0xbe30b954	-0.17258197
171	0xbee532aa	-0.44765216
172	0x3f026e84	0.50949883
173	0xbcb9f6ec	-0.02270075
174	0xbe49c3cc	-0.19703597
175	0xbec9e24b	-0.3943046
176	0xbebea546	-0.3723547
177	0x3e900ce0	0.28134823
178	0xbe40363c	-0.18770689
179	0xbe5f7c44	-0.21824747
180	0xbe988011	-0.29785207
181	0x3ef4e68f	0.47832152
182	0xbe0fea3f	-0.14054202
183	0x3e51c67e	0.20485875
184	0x3ea47e00	0.3212738
185	0xbef01666	-0.4689209
186	0x3edc02f3	0.42971
187	0xbdc823aa	-0.097724274
188	0x3f0f0765	0.5587066
189	0x3e79105c	0.24322647
190	0xbf0fe728	-0.5621209
191	0x3d418535	0.047246177

stem1.0.bias f4 [64]
0	0x3e8de7fe	0.27716058
1	0xbe3d9f4f	-0.18517803
2	0x3eef993f	0.46796605
3	0xbf065fb4	-0.5248978
4	0xbe0c2531	-0.13686062
5	0x3f22dc86	0.6361774
6	0x3f1c9050	0.61157703
7	0x3eb7005e	0.35742468
8	0xbebc36aa	-0.36760455
9	0xbee9f492	-0.45694405
10	0xbed530cf	-0.416388
11	0xbd69115c	-0.05690132
12	0x3ebf773e	0.37395662
13	0x3e1dc472	0.15406969
14	0xbc6d00f7	-0.014465562
15	0x3f18db59	0.597097
16	0x3ef76a7f	0.48323438
17	0xbe81c527	-0.25345728
18	0xbe850bd4	-0.25985587
19	0x3d19d00f	0.037551936
20	0x3e022e83	0.12713055
21	0xbdcb797a	-0.09935279
22	0x3e33dfad	0.17565794
23	0x3ee6b4a9	0.45059708
24	0xbe374442	-0.17897132
25	0x3e98f120	0.29871464
26	0x3d82bf09	0.06384093
27	0x3e93d38e	0.2887234
28	0x3e887bbd	0.26656905
29	0xbe0168ab	-0.12637584
30	0xbe5f74ba	-0.21821871
31	0x3e9d90db	0.30774578
32	0xbee5f21f	-0.44911286
33	0x3eb57c04	0.3544618
34	0xbed396cf	-0.41325995
35	0x3eae02e1	0.3398657
36	0x3e8d36b2	0.27580792
37	0xbe333532	-0.17500761
38	0x3eb6e99b	0.35725102
39	0xbe7cf23b	-0.24701779
40	0x3e46a245	0.19397838
41	0x3e3a48b4	0.18191797
42	0x3c654f26	0.013995921
43	0x3de8fd99	0.11376495
44	0xbd757d98	-0.05993423
45	0xbe2f8fd1	-0.17144705
46	0x3ebf5683	0.3737069
47	0x3e962325	0.29323688
48	0x3e5cdda1	0.2156892
49	0x3eeaa7e7	0.45831224
50	0xbe6129f0	-0.21988654
51	0xbd62fe1e	-0.055418126
52	0xbb4d0426	-0.003128299
53	0x3f0d9adc	0.5531442
54	0xbee3e333	-0.44509277
55	0xbed42774	-0.4143635
56	0xbe5980f0	-0.21240592
57	0xbee1ec5c	-0.4412564
58	0xbecf8f28	-0.40538907
59	0x3ee341ff	0.4438629
60	0x3dc74189	0.09729297
61	0xbf0ea4b7	-0.55720085
62	0xbdee5a10	-0.11638272
63	0xbdc0e743	-0.0941911

out1.0.weight f4 [3, 64, 1, 1]
0	0xbddc428c	-0.1075488
1	0xbe57ca19	-0.21073188
2	0xbca45122	-0.020058218
3	0xbde24b32	-0.110494986
4	0xbd34adb7	-0.04411098
5	0xbe2cc8cb	-0.16873471
6	0xbe372223	-0.17884116
7	0xbddb955e	-0.10721849
8	0xbe018de0	-0.12651777
9	0x3ce46317	0.027879281
10	0xbc0dedc7	-0.008662648
11	0x3d923701	0.071393974
12	0xbe572dce	-0.21013567
13	0x3c079ed6	0.0082776155
14	0x3d73a44c	0.059482858
15	0xbddcf542	-0.10788967
16	0xbda8513b	-0.082186185
17	0xbdd40bad	-0.103537895
18	0x3cf2d4b6	0.029642444
19	0xbe26918d	-0.1626646
20	0x3d3c8d3c	0.04603313
21	0xbe15d2df	-0.14631222
22	0xbd3b8f85	-0.045791168
23	0xbe3c144a	-0.18367115
24	0xbe6c2476	-0.23060784
25	0xbe3524ce	-0.17689821
26	0xba511b7b	-0.0007976812
27	0xbe241907	-0.16025172
28	0x3c7d9772	0.015478002
29	0xbdd7384a	-0.10508783
30	0xbd916dab	-0.07100996
31	0xbddfe87a	-0.10933013
32	0xbdef4163	-0.116823934
33	0xbdd18ee4	-0.10232332
34	0xbe36566a	-0.17806402
35	0x3d6f0fe2	0.058364756
36	0xbdebf8d1	-0.11522067
37	0xbe132703	-0.1437035
38	0xbe6b77e6	-0.22994956
39	0xbdb5d35f	-0.088782065
40	0xbe9a2e2d	-0.30113354
41	0xbd998212	-0.07495512
42	0x3d8697d4	0.06571928
43	0xbe449d80	-0.19200706
44	0x3d0283de	0.03186404
45	0xbe2c1da1	-0.16808178
46	0xbe3071ba	-0.17230883
47	0xbe57ee2f	-0.21086954
48	0x3b4af800	0.0030970573
49	0xbe592af9	-0.21207799
50	0xbcc1a982	-0.023640398
51	0xbd8c0693	-0.068371914
52	0x3c81ea4f	0.015858797
53	0xbe364900	-0.17801285
54	0x3d518619	0.051153276
55	0xbe631aee	-0.22178242
56	0xbe75123d	-0.23932739
57	0x3b1eed69	0.0024250394
58	0xbdb9ac07	-0.09066015
59	0xbe120431	-0.14259411
60	0xbdc88f18	-0.09792918
61	0xbe31ef73	-0.17376499
62	0xbe57c405	-0.2107087
63	0xbdda7452	-0.106667176
64	0x3dd2c635	0.10291711
65	0x3d4d66d9	0.05014691
66	0x3d997601	0.074932106
67	0xbcb840d4	-0.02249185
68	0x3dfb6d04	0.122766525
69	0x3d570a52	0.052500077
70	0x3d66abfa	0.056316353
71	0x3d04c114	0.032410696
72	0x3e182668	0.14858401
73	0x3d424a22	0.04743398
74	0x3de36ec2	0.1110511
75	0x3dbffb41	0.09374095
76	0x3d10801d	0.03527843
77	0x3d9c4de1	0.07632042
78	0xbd10cb19	-0.03534994
79	0x3e50aaaf	0.2037761
80	0x3d403a18	0.046930403
81	0x3dd97569	0.10618097
82	0xbcbf68de	-0.023365434
83	0xbde7d79a	-0.113204196
84	0x3cec4e7a	0.028846014
85	0x3d9e8d86	0.07741837
86	0x3df55ef1	0.11980999
87	0x3d779fe3	0.060455214
88	0x3d70a5b2	0.05875177
89	0x3dc6f0e2	0.097139135
90	0xbd9aabd5	-0.075523056
91	0x3de9b73d	0.11411903
92	0x3dc03e47	0.093868785
93	0x3dd04139	0.1016869
94	0x3dcf0344	0.10108045
95	0xbd963f7d	-0.07336328
96	0x3d99fd31	0.075189956
97	0x3de38ac0	0.11110449
98	0xbd9d0374	-0.07666674
99	0x3b554d9f	0.0032547486
100	0xbd59a456	-0.05313524
101	0xbc8ead09	-0.017416494
102	0x3cbc8f91	0.023017677
103	0x3da3892c	0.07985148
104	0xbc9f3fcc	-0.0194396
105	0xbdd6f732	-0.104963675
106	0x3d2b8a5c	0.041879997
107	0x3d5473d3	0.05186827
108	0xbd1060fe	-0.03524875
109	0x3da0cbe9	0.07851393
110	0x3dd6b1d4	0.10483137
111	0x3a7f3793	0.0009735759
112	0x3c3f23d1	0.011666254
113	0x3d0ce91f	0.03440201
114	0x3b630f2d	0.0034646497
115	0xbcd6b1f1	-0.026207896
116	0xbd5b5857	-0.053551044
117	0xbd52e86e	-0.051491193
118	0x3e4d43a7	0.20045339
119	0xbc982cb3	-0.018576002
120	0xbd570e0b	-0.052503627
121	0x3ddb21f1	0.10699833
122	0x3cf4a07d	0.029861683
123	0x3dbae120	0.091249704
124	0x3e03f26b	0.12885444
125	0xbbb54c0f	-0.0055327485
126	0x3c58f5c1	0.013242186
127	0x3e1003a9	0.14063896
128	0xbccc68ad	-0.024952257
129	0xbc8cc0c2	-0.017181758
130	0x3dcb1b9d	0.09917376
131	0xbcc94335	-0.02456818
132	0x3c4da3ab	0.0125512285
133	0x3dcc4663	0.09974363
134	0xbd8e2c36	-0.06942026
135	0xbcc839b4	-0.024441577
136	0x3e821208	0.25404382
137	0xbdb2d30b	-0.087316595
138	0xbdc7f4c4	-0.09763482
139	0xbdb4aefd	-0.08822439
140	0x3e1a0585	0.15041168
141	0xbdf21c2e	-0.11821781
142	0xbd479073	-0.048721742
143	0x3e3bc1ec	0.18335694
144	0xbd8ddf28	-0.06927329
145	0x3d89bfa3	0.06726005
146	0xbc110a35	-0.008852531
147	0x3d5365c0	0.05161071
148	0x3cca41fa	0.024689663
149	0xbcb9a39c	-0.022661023
150	0x3cb7465e	0.02237242
151	0x3dd756bf	0.105145924
152	0xbdb9d4e7	-0.09073811
153	0x3db0d332	0.08634032
154	0x3c4c821a	0.0124821905
155	0xbc198bf3	-0.009371745
156	0xbceb8e53	-0.028754389
157	0x3c817a0c	0.015805267
158	0x3da1fca0	0.079095125
159	0xbde7769d	-0.113019206
160	0xbdd5883d	-0.10426376
161	0xbda4def9	-0.08050341
162	0x3c90a1cd	0.017655278
163	0xbcda637c	-0.026658766
164	0xbd4bc2a8	-0.049746186
165	0x3de6e519	0.11274166
166	0x3bbe52cb	0.0058082095
167	0xbd922fa3	-0.07137992
168	0xbc4fb1cc	-0.012676667
169	0xbd455ff7	-0.048187222
170	0xbce79c20	-0.028272688
171	0x3d561d03	0.05227376
172	0x3d5c0a32	0.05372066
173	0xbde0c85a	-0.10975714
174	0x3e18196a	0.14853445
175	0x3d91b281	0.07114125
176	0xbd860a32	-0.06544913
177	0x3d351951	0.044213597
178	0x3d21da81	0.039515022
179	0xbda80a00	-0.08205032
180	0xbccdc2a0	-0.025117218
181	0xbdab5308	-0.08365446
182	0x3e320754	0.17385608
183	0x3c0b99da	0.008520568
184	0x3d3fe963	0.046853434
185	0xbd815e54	-0.0631682
186	0x3d9a3d7e	0.0753126
187	0xbced30b2	-0.028953884
188	0xbe050e1a	-0.1299366
189	0x3c19eeaf	0.0093952855
190	0x3dafb588	0.08579546
191	0x3c04f87f	0.008115887

out1.0.bias f4 [3]
0	0xbded1f4d	-0.11578236
1	0xbd8a7c98	-0.067620456
2	0xbdc1f207	-0.09469991

exp_avg f4 [64, 3, 3, 3]
0	0x3a361fc4	0.00069474825
1	0x3a35ff66	0.00069426594
2	0x3a194933	0.00058473943
3	0x3a1a42ce	0.00058845885
4	0x3a1945be	0.0005846879
5	0x3a027d40	0.000497777
6	0x3a0bcc7b	0.0005332899
7	0x3a09f7e5	0.00052630744
8	0x39e3ebeb	0.00043472587
9	0x3aa420a0	0.001252193
10	0x3aa5c010	0.001264574
11	0x3aa40df1	0.0012516362
12	0x3a992751	0.0011684691
13	0x3a9ceb67	0.0011972011
14	0x3a994dd0	0.0011696164
15	0x3a991f1d	0.0011682246
16	0x3a9bc82b	0.0011885216
17	0x3a9d09d3	0.0011981077
18	0x3a894836	0.0010473791
19	0x3a8a528a	0.0010553163
20	0x3a8c3180	0.0010695904
21	0x3a7b679b	0.00095903286
22	0x3a7c05f4	0.0009613924
23	0x3a821d60	0.0009926967
24	0x3a705337	0.00091676734
25	0x3a79b241	0.0009525158
26	0x3a844d0b	0.0010093761
27	0x3a115114	0.00055433926
28	0x3a0bd13f	0.00053336093
29	0x3a06b736	0.0005138995
30	0x3a1652aa	0.0005734364
31	0x3a163982	0.0005730615
32	0x3a0656ea	0.00051246455
33	0x3a185f8b	0.0005812577
34	0x3a0fe885	0.0005489665
35	0x3a077bea	0.0005168306
36	0x39d4e099	0.0004060313
37	0x39d7a06c	0.0004112752
38	0x39ba953b	0.0003558787
39	0x39e12511	0.0004294296
40	0x39d98342	0.0004148726
41	0x39b647a5	0.00034767124
42	0x39d4acc2	0.00040564506
43	0x39c140fd	0.0003686025
44	0x39a9b2cf	0.00032367415
45	0x3a20c368	0.00061326334
46	0x3a229fa3	0.00062035973
47	0x3a16125a	0.00057247805
48	0x3a23af88	0.0006244113
49	0x3a2444ca	0.0006266354
50	0x3a173c9d	0.0005769225
51	0x3a279ebe	0.0006394199
52	0x3a1fffa3	0.00061034615
53	0x3a0fd054	0.00054860604
54	0x3a640d10	0.0008699456
55	0x3a6339db	0.0008667984
56	0x3a6ee6f1	0.00091133924
57	0x3a533518	0.0008056923
58	0x3a60197f	0.0008548721
59	0x3a6e092b	0.00090803456
60	0x3a564888	0.000817426
61	0x3a663375	0.00087814714
62	0x3a6e7947	0.0009097051
63	0x3a04711c	0.0005052255
64	0x3a04d4bb	0.00050670997
65	0x3a0dbd00	0.00054068863
66	0x39f615d6	0.00046937045
67	0x3a025d36	0.0004972996
68	0x3a156bdf	0.0005699973
69	0x3a06f7b6	0.0005148606
70	0x3a099c58	0.0005249432
71	0x3a1aeb2f	0.0005909679
72	0x394490b8	0.00018745929
73	0x39397240	0.00017685536
74	0x3954a6f2	0.00020280087
75	0x393364f4	0.00017108378
76	0x39196bf8	0.00014631439
77	0x39331c14	0.0001708123
78	0x392acf18	0.00016289612
79	0x391e0484	0.00015069736
80	0x394920f5	0.00019181131
81	0xb9a1f988	-0.00030894228
82	0xb9b2c424	-0.00034096942
83	0xb9cd6a7a	-0.00039179978
84	0xb9a801a0	-0.00032044668
85	0xb9c0f3df	-0.00036802792
86	0xb9ccf250	-0.0003909045
87	0xb9abc565	-0.00032762732
88	0xb9be20d3	-0.0003626408
89	0xb9d8179c	-0.0004121632
90	0xb6c63b67	-5.907775e-06
91	0xb7cff247	-2.4789142e-05
92	0xb7b4679a	-2.1505915e-05
93	0xb731bf40	-1.0594551e-05
94	0xb88c5532	-6.691589e-05
95	0xb886efbb	-6.434271e-05
96	0x35d5859a	1.590862e-06
97	0xb8427940	-4.6366127e-05
98	0xb8b0a3bd	-8.4228326e-05
99	0xb998e476	-0.00029161916
100	0xb98cc1c6	-0.00026847253
101	0xb9860211	-0.0002556001
102	0xb9903980	-0.0002750866
103	0xb9980ea0	-0.00029002596
104	0xb999d055	-0.00029337654
105	0xb980dfe2	-0.00024580868
106	0xb9980b31	-0.00029000037
107	0xb99c29b3	-0.00029785707
108	0x3796929f	1.794967e-05
109	0x37c9b07f	2.4043255e-05
110	0x378da9ac	1.688752e-05
111	0x37d5d0c4	2.5488793e-05
112	0x37767e12	1.4692096e-05
113	0x3819f69f	3.6707726e-05
114	0x37f6e4fd	2.9432116e-05
115	0x37622383	1.3478918e-05
116	0x37cff188	2.4788795e-05
117	0x38dfb1bb	0.000106665735
118	0x38ff614b	0.0001217747
119	0x39053567	0.00012703762
120	0x39005734	0.00012239517
121	0x390b93ed	0.0001331118
122	0x390a311f	0.00013179005
123	0x39094d4a	0.0001309413
124	0x3903ad07	0.00012557591
125	0x39144ae6	0.00014142282
126	0xb7feda62	-3.0380852e-05
127	0xb7e733e8	-2.7561517e-05
128	0xb7d58c23	-2.5456835e-05
129	0xb80ac925	-3.3089094e-05
130	0xb77805a3	-1.4783264e-05
131	0xb6cda0cd	-6.1281958e-06
132	0xb7d0b02a	-2.4877565e-05
133	0xb6b96a9a	-5.5258397e-06
134	0x372bf4e1	1.024941e-05
135	0xb77b6ff5	-1.4986833e-05
136	0xb7468a2c	-1.183389e-05
137	0xb7718fb5	-1.4398179e-05
138	0xb7320da1	-1.06128e-05
139	0xb633a8ec	-2.6771404e-06
140	0x36148768	2.2132535e-06
141	0xb62cf7e5	-2.577429e-06
142	0x3681094f	3.8455833e-06
143	0xb71c8c7b	-9.331033e-06
144	0xb88532e1	-6.351411e-05
145	0xb8463d72	-4.7264104e-05
146	0xb7e426b6	-2.7197744e-05
147	0xb8350073	-4.315418e-05
148	0xb828b36d	-4.0221425e-05
149	0xb82b282b	-4.0806986e-05
150	0xb85eacfb	-5.3090025e-05
151	0xb827a12f	-3.9966017e-05
152	0xb7d58f0c	-2.545819e-05
153	0xb7f380d6	-2.9027851e-05
154	0xb7cc8208	-2.4379246e-05
155	0xb8531864	-5.0329036e-05
156	0xb7c0ee34	-2.2999106e-05
157	0xb82d2856	-4.128398e-05
158	0xb806635c	-3.2040625e-05
159	0xb817bc16	-3.6176374e-05
160	0xb7e34e65	-2.7097014e-05
161	0xb7e463de	-2.7226222e-05
162	0xb9ec6f22	-0.00045096228
163	0xba000016	-0.00048828253
164	0xba0a5f59	-0.000527849
165	0xb9db2448	-0.00041797967
166	0xb9f7f8d2	-0.00047296897
167	0xba0456d0	-0.00050483365
168	0xb9e76fdc	-0.00044143095
169	0xb9f0e8de	-0.00045949867
170	0xb9fac9f4	-0.00047834183
171	0xba2cc223	-0.0006590208
172	0xba310e68	-0.0006754161
173	0xba3f3e62	-0.00072953675
174	0xba259d27	-0.0006317668
175	0xba2b486b	-0.00065339234
176	0xba38f17c	-0.0007055027
177	0xba19a027	-0.00058603514
178	0xba1b7be1	-0.000593124
179	0xba29c31c	-0.0006475912
180	0xba32c547	-0.0006819558
181	0xba360ddc	-0.0006944814
182	0xba31516e	-0.0006764148
183	0xba312fb4	-0.00067591225
184	0xba32c2b4	-0.0006819174
185	0xba2e2780	-0.0006643459
186	0xba2eea1f	-0.000667246
187	0xba2e6e38	-0.0006653997
188	0xba2be071	-0.00065565767
189	0x3a8a5d57	0.0010556382
190	0x3a8d8466	0.0010796904
191	0x3a8e2ddc	0.0010847407
192	0x3a70e40a	0.0009189254
193	0x3a8080e7	0.0009804041
194	0x3a830a77	0.0009997626
195	0x3a60f542	0.0008581468
196	0x3a6ccd2f	0.000903326
197	0x3a7b8a4b	0.00095954974
198	0x3ab7c643	0.0014020879
199	0x3abc6740	0.0014374033
200	0x3ac0e43e	0.0014716459
201	0x3aab7ee0	0.0013084076
202	0x3aafc5fa	0.0013410442
203	0x3ab8abef	0.0014089326
204	0x3aa5479c	0.0012609842
205	0x3aae5253	0.0013299681
206	0x3ab60d8d	0.0013889536
207	0x3a9a6d2d	0.0011781804
208	0x3a98ce0a	0.0011658084
209	0x3a998a10	0.001171412
210	0x3a86099c	0.0010226252
211	0x3a883343	0.0010391254
212	0x3a90b515	0.0011040295
213	0x3a79c89d	0.000952849
214	0x3a7f57ba	0.00097405503
215	0x3a8b1653	0.0010611512
216	0xb76c80aa	-1.4096653e-05
217	0xb6c8977e	-5.9781005e-06
218	0x375b6916	1.3077884e-05
219	0xb757bc35	-1.2858819e-05
220	0x35c01674	1.431165e-06
221	0x378d43a5	1.684001e-05
222	0x36cbd4de	6.0746524e-06
223	0x36793088	3.713214e-06
224	0xb701faf5	-7.74743e-06
225	0x3931cd46	0.00016956506
226	0x392dc12d	0.00016570529
227	0x393c1364	0.000179363
228	0x39353abc	0.00017283385
229	0x394b053c	0.00019361539
230	0x3954b15c	0.00020283967
231	0x39575748	0.00020536513
232	0x395de452	0.00021161258
233	0x39758ac0	0.00023416709
234	0x37f5bc0e	2.9293846e-05
235	0x3782c895	1.5590611e-05
236	0x381c6a3e	3.7292244e-05
237	0x37942171	1.7658547e-05
238	0x3803156f	3.1252795e-05
239	0x38426214	4.6344547e-05
240	0x384a3b19	4.8215592e-05
241	0x38890ae6	6.534699e-05
242	0x384c5a86	4.8721697e-05
243	0x3a854bdb	0.0010169701
244	0x3a8513a9	0.0010152954
245	0x3a7f86b2	0.0009747549
246	0x3a872487	0.0010310569
247	0x3a81d47f	0.0009905248
248	0x3a8071d2	0.0009799546
249	0x3a864478	0.0010243794
250	0x3a838d5e	0.0010036638
251	0x3a821f23	0.0009927492
252	0x3aa8a4e6	0.0012866526
253	0x3aa67fdf	0.0012702903
254	0x3a9f4b1a	0.0012153119
255	0x3aa78272	0.0012779965

exp_avg_sq f4 [64, 3, 3, 3]
0	0x37baee6b	2.228395e-05
1	0x37bc5140	2.2449181e-05
2	0x37b954ea	2.209326e-05
3	0x37c08a37	2.2952545e-05
4	0x37c0fca0	2.3005821e-05
5	0x37bd516e	2.2568474e-05
6	0x37c0581b	2.292921e-05
7	0x37c001b9	2.2888986e-05
8	0x37bcc1d2	2.2501601e-05
9	0x3805860a	3.1834505e-05
10	0x38045e7c	3.1559248e-05
11	0x3804c49e	3.1654366e-05
12	0x380458ff	3.1554137e-05
13	0x38033090	3.127806e-05
14	0x3803a056	3.138216e-05
15	0x38050953	3.1718355e-05
16	0x3803c5c2	3.141701e-05
17	0x3804ab87	3.1631e-05
18	0x3841d6a6	4.6214693e-05
19	0x38409966	4.591923e-05
20	0x383f97d2	4.5679342e-05
21	0x3841169b	4.603584e-05
22	0x384003d2	4.5779925e-05
23	0x383f693c	4.5635956e-05
24	0x384085fa	4.5901143e-05
25	0x383f5a87	4.562226e-05
26	0x383f8b92	4.5667934e-05
27	0x37165f40	8.962874e-06
28	0x37196171	9.142198e-06
29	0x371946bf	9.1359825e-06
30	0x3719a6a5	9.158311e-06
31	0x371bb9c4	9.281972e-06
32	0x371b550b	9.258521e-06
33	0x371b0242	9.239246e-06
34	0x371c47df	9.315058e-06
35	0x371ad459	9.228556e-06
36	0x37e31f2e	2.7075028e-05
37	0x37e34f6b	2.709749e-05
38	0x37e277f2	2.6997153e-05
39	0x37e37a14	2.7117356e-05
40	0x37e371bd	2.7113472e-05
41	0x37e2a077	2.7016022e-05
42	0x37e303d6	2.7062295e-05
43	0x37e30702	2.7063772e-05
44	0x37e1a3da	2.689839e-05
45	0x3812d1aa	3.5004377e-05
46	0x38129709	3.4949775e-05
47	0x38120a8e	3.4818942e-05
48	0x3812e363	3.5020883e-05
49	0x381285f6	3.4933873e-05
50	0x381204f2	3.481372e-05
51	0x3812a264	3.496035e-05
52	0x3812442e	3.487261e-05
53	0x3811ae4f	3.473303e-05
54	0x376df1a4	1.4182562e-05
55	0x376b212c	1.4014815e-05
56	0x37665d35	1.373077e-05
57	0x376c1544	1.40716475e-05
58	0x376863e3	1.3851534e-05
59	0x37617a26	1.3439485e-05
60	0x37649e9a	1.3626786e-05
61	0x3760864e	1.3382711e-05
62	0x3758b05b	1.2915664e-05
63	0x36baee7f	5.5709966e-06
64	0x36b8197f	5.4865955e-06
65	0x36b74b69	5.462604e-06
66	0x36ba2862	5.547933e-06
67	0x36b873ec	5.4971224e-06
68	0x36b89aee	5.5016635e-06
69	0x36bb5790	5.583228e-06
70	0x36b9bf97	5.5357336e-06
71	0x36baa73e	5.5627015e-06
72	0x372c3f64	1.0266758e-05
73	0x372c40fe	1.0267131e-05
74	0x372bc75e	1.0238813e-05
75	0x372d89d7	1.0343697e-05
76	0x372eab1b	1.0411047e-05
77	0x37304158	1.05056315e-05
78	0x373029b3	1.0500126e-05
79	0x373214f3	1.0614504e-05
80	0x37351c5b	1.0795043e-05
81	0x36cdead2	6.1368128e-06
82	0x36c085aa	5.7376064e-06
83	0x36ac75f3	5.1397305e-06
84	0x36c9af8d	6.0107036e-06
85	0x36b93396	5.519435e-06
86	0x36a1ae98	4.8184993e-06
87	0x36c22f46	5.787154e-06
88	0x36b0a65a	5.2645746e-06
89	0x369991c4	4.5767247e-06
90	0x37164e14	8.958876e-06
91	0x37115d83	8.664446e-06
92	0x370b9d27	8.3216355e-06
93	0x37143502	8.833829e-06
94	0x370e4976	8.4809635e-06
95	0x370675fe	8.014495e-06
96	0x37112572	8.651392e-06
97	0x370b0433	8.286023e-06
98	0x3702b731	7.791256e-06
99	0x36af0a01	5.216571e-06
100	0x36a5f5ec	4.9460123e-06
101	0x36a02ec7	4.773817e-06
102	0x36aa6555	5.0781914e-06
103	0x36a15a35	4.8086754e-06
104	0x369851be	4.539469e-06
105	0x36a5fcca	4.9468117e-06
106	0x369dcdaa	4.702907e-06
107	0x36942fe9	4.416321e-06
108	0x332cc0a2	4.022207e-08
109	0x332a1bbd	3.9606437e-08
110	0x3331480d	4.1276554e-08
111	0x3325ad1e	3.8574505e-08
112	0x331ff45c	3.7242316e-08
113	0x3329f95c	3.957517e-08
114	0x3328a459	3.926502e-08
115	0x3322263f	3.775335e-08
116	0x332a2832	3.9617767e-08
117	0x351e7ce0	5.9041304e-07
118	0x351d0375	5.849209e-07
119	0x35256c60	6.1624996e-07
120	0x3516425d	5.5975926e-07
121	0x35146d7d	5.529362e-07
122	0x351b5e19	5.787893e-07
123	0x35157260	5.5673263e-07
124	0x35141430	5.5163673e-07
125	0x351ace0a	5.7669297e-07
126	0x35aa2cbe	1.2679009e-06
127	0x35abe3b7	1.2806767e-06
128	0x35b66306	1.3588876e-06
129	0x35a32728	1.2155842e-06
130	0x35a30a54	1.2147452e-06
131	0x35ab251e	1.2751295e-06
132	0x35a314d6	1.215051e-06
133	0x35a1e983	1.2063396e-06
134	0x35a935dc	1.2607156e-06
135	0x3313b6fe	3.4392535e-08
136	0x33116ca4	3.385925e-08
137	0x331600e2	3.49254e-08
138	0x330e354c	3.3110425e-08
139	0x330cfeec	3.282814e-08
140	0x3311dbdb	3.39604e-08
141	0x330f9077	3.3426172e-08
142	0x330e7824	3.317122e-08
143	0x330e7a6d	3.3173297e-08
144	0x34673e51	2.1536222e-07
145	0x34619776	2.1009859e-07
146	0x346d2563	2.2085946e-07
147	0x34551890	1.9846107e-07
148	0x3450567d	1.9402974e-07
149	0x34596808	2.0247546e-07
150	0x3450ddcd	1.94522e-07
151	0x344c3ba4	1.9020678e-07
152	0x3453e387	1.973368e-07
153	0x35292036	6.300428e-07
154	0x35278bac	6.24156e-07
155	0x352dc606	6.4735684e-07
156	0x351fdc55	5.955274e-07
157	0x351d40d0	5.858137e-07
158	0x35221ba7	6.038994e-07
159	0x351d3c23	5.857457e-07
160	0x351a0334	5.737413e-07
161	0x351ddfb6	5.88126e-07
162	0x3867abbb	5.523463e-05
163	0x386514f5	5.4617372e-05
164	0x3862dee9	5.40902e-05
165	0x386bec7e	5.6248617e-05
166	0x38699534	5.5690485e-05
167	0x38666d1d	5.4937893e-05
168	0x386e279d	5.6780515e-05
169	0x386cf1b1	5.6491877e-05
170	0x386a1994	5.581377e-05
171	0x391f2f48	0.00015181035
172	0x391d814d	0.00015020855
173	0x391b23fe	0.0001479536
174	0x39205fe3	0.0001529451
175	0x391e93c4	0.00015123101
176	0x391bd796	0.00014862264
177	0x392079e9	0.00015304204
178	0x391f18b8	0.0001517263
179	0x391cd206	0.00014955559
180	0x392f0f64	0.00016695034
181	0x392d5ec5	0.0001653387
182	0x392a91a3	0.00016266717
183	0x393030b8	0.00016802817
184	0x392e96cd	0.00016650111
185	0x392b51c0	0.00016338285
186	0x39302dd4	0.0001680174
187	0x392f0cbe	0.00016694047
188	0x392c5043	0.00016433098
189	0x3801c843	3.0942505e-05
190	0x3803773a	3.1343872e-05
191	0x3802b931	3.116689e-05
192	0x3802d107	3.1189087e-05
193	0x3804fc0a	3.1705982e-05
194	0x3803fad7	3.1466447e-05
195	0x3802041c	3.0998242e-05
196	0x3803e532	3.144629e-05
197	0x3802b5ab	3.1163607e-05
198	0x37f70a58	2.9449511e-05
199	0x37f48960	2.9151037e-05
200	0x37f639cf	2.9352404e-05
201	0x37f2e16f	2.8953624e-05
202	0x37f0a944	2.868905e-05
203	0x37f16603	2.8776942e-05
204	0x37f25c8e	2.8891747e-05
205	0x37efe6a7	2.8598426e-05
206	0x37ef72f9	2.8544559e-05
207	0x3823879b	3.898852e-05
208	0x38227078	3.8728555e-05
209	0x38221717	3.8645314e-05
210	0x3822ba7e	3.8797494e-05
211	0x3821da69	3.85888e-05
212	0x38217f33	3.8503855e-05
213	0x3821ffbd	3.8623566e-05
214	0x382101ff	3.838725e-05
215	0x3820b314	3.8313752e-05
216	0x33239bc9	3.809308e-08
217	0x3322d684	3.7913665e-08
218	0x333533e6	4.2189548e-08
219	0x331d74c8	3.6660623e-08
220	0x331ded7f	3.6770412e-08
221	0x332e142d	4.053088e-08
222	0x3329deaf	3.955091e-08
223	0x33287e72	3.923055e-08
224	0x3333f7c2	4.190202e-08
225	0x35763eaf	9.173336e-07
226	0x357190d4	8.999025e-07
227	0x357d4b58	9.4359484e-07
228	0x356cdb4f	8.8235987e-07
229	0x3568ecd5	8.677137e-07
230	0x357424ae	9.095046e-07
231	0x3570e297	8.97367e-07
232	0x356ed662	8.8973877e-07
233	0x357b8f4e	9.371332e-07
234	0x3618a5f8	2.2746372e-06
235	0x36182833	2.2673164e-06
236	0x36202d71	2.3868308e-06
237	0x3614657c	2.211279e-06
238	0x361352da	2.1952933e-06
239	0x361a4544	2.2988106e-06
240	0x3617570b	2.255142e-06
241	0x36162a14	2.2376234e-06
242	0x361cc678	2.3361335e-06
243	0x373b3dbf	1.1160445e-05
244	0x373a853d	1.1117486e-05
245	0x37382a4d	1.0977104e-05
246	0x373b992f	1.1181734e-05
247	0x373aa1f6	1.1124173e-05
248	0x3737f322	1.0964259e-05
249	0x373a38b6	1.1099668e-05
250	0x3739b32c	1.1068576e-05
251	0x3736eaa4	1.0902677e-05
252	0x382dc5c5	4.14306e-05
253	0x382dcb76	4.1435902e-05
254	0x382dc3a0	4.1428604e-05
255	0x382db919	4.14188e-05

exp_avg f4 [64]
0	0x3aa9435f	0.0012913755
1	0x3a0dcef8	0.0005409564
2	0x3a148d93	0.0005666848
3	0xba44d6bd	-0.0007508805
4	0xb9bc6dac	-0.00035939866
5	0xba2a15fc	-0.0006488261
6	0xba5d35e8	-0.00084385136
7	0x3a6e4efb	0.00090907485
8	0xba063444	-0.00051194825
9	0x3b064a21	0.0020490962
10	0xb8d94806	-0.00010360782
11	0xbaea17db	-0.0017859893
12	0xba4d9385	-0.00078421115
13	0x37acfbda	2.0621275e-05
14	0x3971f154	0.00023073453
15	0x3a177cc7	0.0005778786
16	0xb9ada0ad	-0.00033116844
17	0x000000df	3.12e-43
18	0xb98ac9cf	-0.0002647177
19	0xb53cbcb6	-7.031007e-07
20	0xb5ec2a2d	-1.7595645e-06
21	0x3b52649b	0.0032103423
22	0x393ef74b	0.00018211936
23	0x394ae4da	0.00019349475
24	0xb77f0d18	-1.5202233e-05
25	0xba57162a	-0.0008204902
26	0x389fa9e2	7.613354e-05
27	0xba04c417	-0.000506462
28	0x39096038	0.00013101182
29	0x3a8b19f5	0.0010612594
30	0xb8d5b261	-0.00010189857
31	0xb84d6999	-4.8974154e-05
32	0xba3acccf	-0.0007125856
33	0xb9f68fb8	-0.00047027855
34	0x39280734	0.00016024412
35	0xb9a78550	-0.00031952048
36	0x3967706b	0.00022071756
37	0x39b50ee0	0.00034534093
38	0x3a1266ba	0.00055847655
39	0xb8ae1bb5	-8.3021274e-05
40	0x38fd3dfb	0.00012075525
41	0x9e678a2e	-1.2257613e-20
42	0x9c9818a9	-1.0064891e-21
43	0xb8cc8407	-9.75207e-05
44	0x399a72c8	0.00029458688
45	0x3b4b7e80	0.0031050742
46	0x39a9dfd8	0.00032400968
47	0xb9348ee5	-0.0001721937
48	0x3bae05bf	0.0053107436
49	0xba4f43b8	-0.0007906514
50	0xbb519e0b	-0.003198507
51	0xb90e408c	-0.00013566221
52	0xba4366a0	-0.0007453952
53	0xba84910e	-0.001011403
54	0xba5b9f18	-0.0008377894
55	0x3b8de048	0.004329715
56	0x3ab925ec	0.0014125681
57	0x3a7d88e7	0.0009671584
58	0xb7572f9a	-1.2826082e-05
59	0x394aa71d	0.00019326476
60	0x3ab8ce77	0.0014099617
61	0x3a0c879d	0.0005360784
62	0xba718a23	-0.00092140044
63	0xb88292fb	-6.22626e-05

exp_avg_sq f4 [64]
0	0x37d2775b	2.508953e-05
1	0x38a0a328	7.659785e-05
2	0x36f3b47f	7.262977e-06
3	0x384b0918	4.840744e-05
4	0x38b41bda	8.5882566e-05
5	0x3800aaf1	3.067678e-05
6	0x39813360	0.00024643075
7	0x3825c422	3.952173e-05
8	0x390a9ae7	0.00013218411
9	0x38eddf74	0.00011342662
10	0x35911940	1.0810691e-06
11	0x394b375c	0.00019380212
12	0x371316e0	8.767209e-06
13	0x3685e8a7	3.990793e-06
14	0x3789754c	1.6386293e-05
15	0x37b1f4a9	2.1213973e-05
16	0x3841f502	4.6242967e-05
17	0x2a1537ec	1.325326e-13
18	0x36522864	3.131595e-06
19	0x3091048d	1.0551432e-09
20	0x30437e16	7.1119766e-10
21	0x38da87a6	0.000104203165
22	0x370e6ade	8.4887415e-06
23	0x389bea42	7.43461e-05
24	0x375edba2	1.3283368e-05
25	0x37755883	1.4623746e-05
26	0x36a4b376	4.908473e-06
27	0x37320607	1.061103e-05
28	0x36db2524	6.5310323e-06
29	0x382f6747	4.1819436e-05
30	0x38c2a32b	9.281033e-05
31	0x360679c4	2.0038433e-06
32	0x385540d6	5.084354e-05
33	0x36b4671c	5.3764215e-06
34	0x379ac23f	1.8448683e-05
35	0x371f438b	9.492865e-06
36	0x37486679	1.1944788e-05
37	0x36317b15	2.6446698e-06
38	0x38190ff8	3.6492915e-05
39	0x36a21a1e	4.8310167e-06
40	0x35f22e28	1.8043838e-06
41	0x2b086c8c	4.8467545e-13
42	0x2b513efd	7.433913e-13
43	0x3500412f	4.777857e-07
44	0x381692aa	3.589938e-05
45	0x39ad0884	0.00033003476
46	0x375de4d3	1.3225904e-05
47	0x36bd79fc	5.64684e-06
48	0x38ad207a	8.255332e-05
49	0x3760c1a0	1.3396522e-05
50	0x39723f9f	0.00023102619
51	0x3631fc47	2.65219e-06
52	0x378430c9	1.5758344e-05
53	0x391c6135	0.00014913532
54	0x37dc0dc7	2.623246e-05
55	0x38becd65	9.098164e-05
56	0x3842a972	4.6411013e-05
57	0x382d5b62	4.133152e-05
58	0x31de98d4	6.478425e-09
59	0x38e5def0	0.00010961096
60	0x38ec913f	0.00011280411
61	0x379d8be0	1.8780993e-05
62	0x38559574	5.0922346e-05
63	0x362bc840	2.5597546e-06
