work_dir/DNnet/UIEB/20250319/122851/best_mse_model.pth (torch, 59762 bytes, 24 tensors)

stem0.0.weight f4 [64, 3, 3, 3]
00000000: 3ab8 9a3b 9511 ce3d bbc6 12be 3cff 10be
00000010: 2f25 a5bd 9dcb 6b3d 990f 653a c780 193e
00000020: 1539 09bb 4429 193d c7a7 9bbd a2b1 39bd
00000030: 14ec 4ebe c06d 1bbe 1b14 b7bd 9396 9ebb
00000040: 64d5 6b3d ce27 db3d 22e5 e3bd 747c 89bd
00000050: 3ee8 b53d d2af 343e 0c6e bdbc adf7 273e
00000060: 4676 a4bb 1a35 2d3d b734 4a3e 73d2 29be
00000070: f4ed e1bd 1883 3ebd e420 8fbd 4184 1c3e
00000080: 7909 e2bd 0d12 a7bd 7903 f2bd 6613 21be
00000090: f256 bcbd aefe 3f3e 2201 e43d a39e e83d
000000a0: 72cc 193d 85e1 89bd ebe1 563d ac61 18be
000000b0: 251e dfbd f829 a8bd 4ad7 0b3e 5f20 033e
000000c0: 63c7 89bd 0300 233c 1965 0d3e ad96 4e3e
000000d0: 90f0 ba3d ad45 2d3d 128c 163e 4370 d8bd
000000e0: 2b05 d53c fc0e 08be 1a45 11be 2737 f2bd
000000f0: 4143 b93d e22f 723d 3e2d 03be 817d 903d
00000100: c2bc ac3d 0c82 88bd 96c7 953b 8f0d d9ba
00000110: bf17 413d ebb5 273e 11f9 40be b9e0 ecbd
00000120: bc85 db3d 1eca 363e 6b2a 353e 6dfe 443e
00000130: 1ee1 5a3d 17b4 19be fd8c 3f3d 76b6 cabd
00000140: 664d 1cbe e69d 373e 81bd 1c3e 293a 23be
00000150: de0d 773d d00a f8bb 36f6 4abc 695e 5dbd
00000160: 3096 ba3d 288f b1bd 5337 4f3d 764e 973d
00000170: 1713 e53d c746 6e3d ee01 45be ab12 09be
00000180: cc25 a93d ab14 ea3c a4f0 1dbe a771 f1bd
00000190: e1e8 1c3e 7059 d73d 7ad6 b4bd ecfe 6abd
000001a0: 51b1 3ebe 5e9f 6abc c4f8 15be 93da 1bbe
000001b0: ceaa dcbd 9954 a2bd 6ae8 22be 46de 75bc
000001c0: fc78 3abe 3f95 e23c 1fec e839 6bf0 59be
000001d0: 8a51 07be 92f9 a8bc 71be c5bb 75f1 c13b
000001e0: 8b2f 1f3d f67e 93bc 1114 e0bd 4600 623d
000001f0: 7ddb 3bbe 57bf fdbd ca2b 64bd 20f4 c1bd
00000200: a24c 99bd f409 16be dee6 3dbd fb18 ba3c
00000210: eeab eebd f000 97bc dfad dd3d 0a0f c0bd
00000220: 17d1 9abd 1d68 c0bd 0aaa 4cbd f6d8 703c
00000230: c7d2 7c3d bbd4 753c b3df 793d d241 bdbd
00000240: f7fc 1ebe 638e b3bd e606 ca3d 356d 1abc
00000250: 2427 bbbd 31ed 0cbe 1777 24be efbb 17be
00000260: 4dc5 37bd 6abc 9b3d ab1c 9a3d 7aff 39be
00000270: c36e b93d 26b5 15be 8562 4bbd 7bb2 a5bd
00000280: e728 35bd 2236 38bd 03b8 31be 8780 2bbe
00000290: 3bbc a2bc 9633 50bc f540 d2bd a090 8f3d
000002a0: 1b4c 37be fe70 ecbc 20ea 273e cddc babd
000002b0: 205c 243e 8516 863d dc98 41be ec11 d53d
000002c0: e022 eebc 75de cdbd 77d0 0a3e 4e8b 26be
000002d0: 7bbd 723c 965c 37bd 6379 093e d5f5 433d
000002e0: dc24 af3d f5a6 843d 7b63 47bd 9707 39bd
000002f0: 3b5c 23be a3e0 043e 7a8b 253e fb37 163e
00000300: 48ca cfbd fff7 873c 129f e1bd 32c8 90bd
00000310: c35c b9bd 6bbd 9c3d 9524 dabd dbc2 b6bb
00000320: e4dd 343c 1aa8 003e d469 1bbe ce2e 08be
00000330: a6c8 d7bd fceb 023e e31a 8dbd 5fc3 3e3e
00000340: 3706 ba3d 0b93 433d 61c7 d53c eb4f 7dbc
00000350: 23ac 423d c326 46bc c881 cd3c f6b5 4f3d
00000360: 039c 43be 99bb 1dbe 80e7 4d3d 8efc 47be
00000370: fe24 aabd d194 a33d 18cb 50bc ac0b 88bd
00000380: 432c 55be 711c 503d 0b5d 2fbe f886 cbbd
00000390: 6b83 c7bd b638 8dbd 4049 36bd 0855 e83d
000003a0: 0245 8dbc 2d65 f23d 2e4b b33d a8dd 10be
000003b0: 0656 563d c740 1abe 09de cebd 0e73 dd3c
000003c0: 4951 243d 8cdb eb3d c091 a9bd dfce 8bbc
000003d0: 2e18 363d d9cc 18be 77d4 a23d b932 07be
000003e0: c157 d4bc a059 1ebd c211 b7bd 7b11 5bbc
000003f0: b4c9 2b3e 67ba 31bd cd8e c0bd e7fb 4fbd
0.0047216685 0.10061947 -0.14333622 -0.14159864 -0.08063733 0.057567228 0.0008737981 0.14990531
-0.0020938565 0.03739287 -0.0760036 -0.04533542 -0.20207244 -0.15178585 -0.08939382 -0.004839727
0.057576552 0.107009515 -0.11127688 -0.06713191 0.08882187 0.17645195 -0.023123764 0.16403075
-0.005018982 0.04228697 0.19746672 -0.16584186 -0.11031714 -0.04651174 -0.06988695 0.15284826
-0.11036963 -0.0815774 -0.118170686 -0.15730056 -0.09196271 0.18749496 0.111330286 0.113583826
0.03754849 -0.067324676 0.052461546 -0.14881009 -0.108944215 -0.0821113 0.13656345 0.12805317
-0.06727483 0.009948733 0.13808097 0.20174666 0.09127915 0.042302776 0.1470187 -0.10568287
0.02600344 -0.13286966 -0.14186516 -0.11826926 0.09046031 0.059127696 -0.12810227 0.07055188
0.0843444 -0.066654295 0.0045709116 -0.0016559827 0.047141787 0.1637799 -0.18845011 -0.115663
0.10718867 0.17850539 0.17691962 0.1923768 0.053437345 -0.15010105 0.046765316 -0.09898083
-0.152639 0.17931327 0.15306665 -0.15940155 0.06031596 -0.0075696483 -0.012387803 -0.054045115
0.09110677 -0.08669883 0.05058987 0.07388012 0.11185282 0.058172967 -0.19239017 -0.13386028
0.08259162 0.028574308 -0.15423828 -0.117892556 0.15323211 0.10515106 -0.08829971 -0.05737202
-0.18622328 -0.014320223 -0.14645678 -0.15220098 -0.10774766 -0.07926292 -0.15908971 -0.015006607
-0.18210214 0.027659057 0.00044426412 -0.21283118 -0.13214698 -0.020626817 -0.0060346653 0.0059186765
0.0388637 -0.018004876 -0.10941327 0.055176042 -0.18345447 -0.12390011 -0.055705823 -0.09470391
-0.0748532 -0.14652234 -0.04636275 0.02271699 -0.11653887 -0.018433064 0.10824179 -0.093778685
-0.07559412 -0.09394858 -0.04996685 0.014700165 0.06172445 0.015004332 0.06100435 -0.0924107
-0.15526186 -0.087673925 0.09864597 -0.009425451 -0.09138325 -0.13762356 -0.16061054 -0.14817785
-0.044865895 0.076042965 0.07524999 -0.18163863 0.09054329 -0.14619884 -0.049654502 -0.08090683
-0.04422846 -0.0449735 -0.17355351 -0.16748248 -0.019865146 -0.012707612 -0.10266296 0.07010007
-0.17900126 -0.028862473 0.16397905 -0.09124146 0.16050768 0.06547264 -0.18905967 0.10403809
-0.029069364 -0.10052196 0.13556086 -0.16264078 0.0148156835 -0.04476603 0.13425212 0.047841866
0.08551952 0.06477157 -0.048678856 -0.045173254 -0.15953152 0.12976317 0.16166487 0.14669792
-0.10146004 0.016597746 -0.110166684 -0.07069434 -0.09050896 0.07653316 -0.10651509 -0.005577428
0.011039231 0.12564126 -0.15177089 -0.13299105 -0.105363175 0.12785333 -0.06889894 0.18629216
0.09083217 0.047747653 0.026096048 -0.015460948 0.047527444 -0.012094202 0.025086299 0.05071064
-0.19102482 -0.15403594 0.050269604 -0.19529936 -0.08307837 0.07987369 -0.012743734 -0.06642851
-0.20817666 0.050808374 -0.17125337 -0.099378526 -0.09741863 -0.068955824 -0.04450345 0.113443434
-0.01724482 0.11835704 0.08754574 -0.14147055 0.052328132 -0.15063773 -0.101009436 0.027032401
0.040116582 0.115164846 -0.08279753 -0.017066417 0.044456653 -0.14921893 0.07950681 -0.13202943
-0.02592075 -0.03865969 -0.08938934 -0.013370867 0.16776162 -0.043390658 -0.09402237 -0.050777342

stem0.0.bias f4 [64]
00000000: b597 d83d 36c8 20be a508 893d d7b7 283e
00000010: 7ffc 123e e16a 413e b23b 323e 85a3 193c
00000020: 6c31 b03d 5c8e 88bd 8894 3c3e 0e47 2e3e
00000030: 766c d2bd bcaa 313e 60b0 343d 996c f1bc
00000040: 3d2b 90bd c8d3 f0a9 5ef1 eb3c c4a6 2abc
00000050: 61d3 e8bc ad40 f7bd 687f 7fbd 3c05 2b3e
00000060: d86c 193e a46b 93bd 62d7 a33c c86e a4bc
00000070: 401c 77bd 61ce fc3c 6ea6 74bd 86bf d33d
00000080: 9ade e3bd a2a0 a93c 3d06 ebbd ecb0 86bd
00000090: 2902 273e 0ffb 3dbb 75bd e53b cd82 3b3e
000000a0: bf07 8c3d fee0 eeb4 445c 80af a9f5 313d
000000b0: 9c7a 4abd 3f1d a73d 6f76 8abc 2943 363e
000000c0: 4aa7 bebd 4d5b 54bd 2c5d 7dbc 83a2 3c3e
000000d0: d992 433e 2c5a b73d 8706 4ebd 11f8 06be
000000e0: 7778 d33d fb0f 14be 0bfa c2bc 1df1 fabd
000000f0: bc61 51be 250a 023e 5303 6c3d 93bc 253e
0.10575811 -0.15701374 0.06691102 0.1647638 0.14354132 0.18888427 0.17405584 0.009377365
0.086031765 -0.06667778 0.18416035 0.17019293 -0.102745935 0.17350286 0.044113517 -0.029470729
-0.07039497 -1.0694879e-13 0.028801616 -0.010415737 -0.028421106 -0.12072883 -0.062377363 0.16701216
0.14982927 -0.07198265 0.020000163 -0.020072356 -0.060329676 0.030860128 -0.059729032 0.103392646
-0.11126442 0.020706479 -0.11475799 -0.06576714 0.16309418 -0.0028988754 0.0070111104 0.18311615
0.06837415 -4.4494658e-07 -2.3348623e-10 0.04344717 -0.049433336 0.08159875 -0.016902177 0.17799057
-0.093092516 -0.051844884 -0.015464108 0.18421368 0.19098987 0.08952746 -0.050299194 -0.13180567
0.10325711 -0.14459221 -0.02380087 -0.1225302 -0.20447439 0.12699182 0.057620358 0.16185217

out0.0.weight f4 [3, 64, 3, 3]
00000000: f3eb 473b eb3b 203d bb13 ae3d 30de 203d
00000010: 7238 063e 233c 0f3e 9da3 d13d f8e2 db3d
00000020: 6a0e dd3d 0fd1 8abc 168c 48bd 9cf8 d1bc
00000030: a185 67bd 5a33 12bc 594e 61bd bf50 56bd
00000040: f23a 74bd 3878 dd3b ddf3 6e3d 1f41 943d
00000050: d44b afbc 0d93 a33d be5b f73c e3ac 9bbc
00000060: 4668 2e3d 6f1e 10bc d0e2 ffbc 5c78 c6bb
00000070: 68c4 c5bb 942e 5dbc 3f2f b63c dc2e 91bc
00000080: 1a0f 85bd bdd3 a9bc eca2 6cbc 6ed5 9eb9
00000090: 5d26 483d 09c2 da3d 4fb3 403d 3f42 243d
000000a0: acce 653d b6d4 973d 8262 aa3d 0060 393d
000000b0: 30eb da3d a1f9 ad3d d05d 5f3d 406d af3d
000000c0: 20eb cc3c c31e 023d 50c6 333d 18ff 2e3d
000000d0: 4f90 833c b347 7c3c 5dd4 363d 88fc 313d
000000e0: 5b0e 163e eade c8bc 6b12 283d 4ac7 dd3d
000000f0: 46dd d0bb 429a ec3c ee7c 163e 3728 c33d
00000100: 797b cc3d 5287 db3d 0347 a73d 6927 d43d
00000110: 4b7d dd3c f809 8c3d 9c51 693d bfb3 763d
00000120: 09f9 5d3d b074 663d d374 a03d 8d1a c53d
00000130: 1668 e23d 1792 ce3d 0ea8 f23d 38af aa3d
00000140: 4bd6 983d c036 b8bb 9283 113c 8f90 19bd
00000150: b476 10bc 5726 86bc 99f2 bbbc 58ad c2bc
00000160: 253d 0e3d 933b 7fbd 4e95 5fbd 9083 91bd
00000170: 8255 72bd e3a9 41bc 31b9 75bc 6acf 85bd
00000180: 2d10 4e3d 4875 1abb f9d6 5c3a cf50 0d3e
00000190: a20f 283e 9b45 173d fee8 8d3d a6e5 fb3d
000001a0: 45f0 6c3d 848d 5c3d 8d53 c13d 7e31 a13d
000001b0: 269c aa3c 40f6 883b a86c a8bc f8ff bcbc
000001c0: 6f32 2fbd 69ac 81bd 898a 57bc 38a9 28bd
000001d0: ffcf a5bd c867 8b3d 6df3 7f3c e4ad 92bd
000001e0: e80c 8d3d 631c a4bb 6775 b3bc e990 b63d
000001f0: 85d5 743d faac 963c bb96 2b3d 0852 a23d
00000200: 3691 7b3d 1d77 6a3c bc9a 213d ffbc 9b3d
00000210: f6e4 283d 7718 893d 24c8 b83c 1200 353c
00000220: 08f6 fa3c 9c2e 7b3d 23b1 3fbd bf52 b7bc
00000230: 5930 9f3d 8f11 b43c 5db8 db3c 85a6 b63d
00000240: fced 6e3c ee81 78bb cef3 86bd 1497 63bd
00000250: 0aab 5abd ead0 6bbc a606 71bd db24 12bd
00000260: 0d39 a3bc 88af cf26 fff5 08a6 4963 d9a6
00000270: 88e3 f2a6 c1c3 c1a6 1ce3 0aa7 e343 2427
00000280: 08b7 57a6 fe9d 35a7 81e4 26bd e1d7 bdbd
00000290: 8683 d0bc a23a aab9 f8bc 88bd 33de 2ebd
000002a0: 72fc b33d be77 623b 0341 88bd 5c9b 093a
000002b0: da51 273b ef54 443b 20d2 bd38 6889 4c3a
000002c0: cdcb 1b3b 1dbe 0bba cba4 f437 e2b1 9a39
000002d0: c44b c6b3 b3d4 2833 e0a1 1f35 8f4a 09af
000002e0: 2ef4 5f2f 5def 8832 3a65 340c c266 32a1
000002f0: ea3c 9f2b e4eb 0a3d 65d9 a13d 7113 ca3d
00000300: 5acf a33d 959f 243d 5867 923d 0485 8d3c
00000310: 9527 893d 9448 db3d 9ed0 113d e70c a13c
00000320: e47f 0c3d a790 763d e990 7d3a 28aa 80bb
00000330: bf6b 943d 4eb6 0a3d 99d3 32bd a4d5 bc3d
00000340: af3f ff3d ffa5 4d3d 8401 4e3d 71f1 9f3d
00000350: 303e 0d3d 3333 b23b a77e 463c acde 09bc
00000360: 4391 bdbd 32de 993d 7893 ab3d 0f4e 00bd
00000370: d262 8a3c 8606 c73d 67ec ecbb 9f86 db3c
00000380: 299c 273d c83c dd3b bad0 c9bc 07aa 83bc
00000390: 836d 8fbd ea17 79bd 31eb a3bc 2406 bcbc
000003a0: 97cf 1cbd 9344 3cbd f7e8 a6bd 8930 0fbe
000003b0: f19d 04be 59a9 113d 660b debb dec4 bebc
000003c0: 4000 053e 606e 0a3e f5a1 163d 6693 c3bc
000003d0: a074 b2bd aefd 07be fd65 c33c 0d7b 6ebd
000003e0: 4e37 86bd 4a21 243d 2399 353d 81fb fa3c
000003f0: b068 a5bb 930f 03bc 89bf cf3d 870e 3cbd
0.0030505627 0.039119642 0.08499857 0.039274395 0.1310747 0.13987784 0.10236285 0.1073665
0.10793765 -0.01694539 -0.04896172 -0.025631242 -0.056523923 -0.008923376 -0.05500636 -0.0523231
-0.059626527 0.006758716 0.058338035 0.07238983 -0.021398462 0.07987032 0.030195113 -0.019003337
0.04257991 -0.008796318 -0.031236082 -0.0060568284 -0.0060353763 -0.013499875 0.022239326 -0.01772254
-0.06497021 -0.020730847 -0.0144431405 -0.00030295126 0.04886471 0.106815405 0.047046002 0.04010224
0.0561053 0.07413618 0.0831957 0.04525757 0.1068939 0.084948786 0.054532826 0.0856576
0.02501446 0.031767618 0.043890297 0.042723745 0.016060023 0.015397954 0.04463612 0.043453723
0.14653914 -0.024520356 0.04103319 0.10829027 -0.006374034 0.02888215 0.14696094 0.09529155
0.09984488 0.1071917 0.08167841 0.103590794 0.027037283 0.06837839 0.056962594 0.060230013
0.054192577 0.056263626 0.078347825 0.09624205 0.11055009 0.10086458 0.1184846 0.083342016
0.07462748 -0.005621761 0.008881466 -0.037491377 -0.0088173635 -0.016375704 -0.022942828 -0.023764297
0.03472628 -0.062312674 -0.054585747 -0.07105172 -0.059163578 -0.011820289 -0.014997766 -0.06533702
0.050308395 -0.002356844 0.00084243674 0.13800357 0.16412213 0.036931615 0.06929205 0.12299661
0.057846326 0.053845897 0.09439764 0.07870768 0.02082641 0.004179746 -0.020559624 -0.023071274
-0.042772707 -0.06331713 -0.013155588 -0.041177005 -0.08096313 0.06806904 0.015622002 -0.07162073
0.06887227 -0.005008267 -0.021906568 0.08914358 0.05977394 0.018393029 0.041891795 0.079258025
0.06141778 0.014310625 0.039454207 0.076044075 0.04123398 0.066941194 0.022556372 0.01104738
0.030634895 0.061323747 -0.04679979 -0.022378324 0.077728935 0.021981029 0.02682131 0.0891848
0.014583107 -0.003791924 -0.06589471 -0.055564 -0.05338577 -0.014393071 -0.05884423 -0.03567968
-0.019924665 1.4411088e-15 -4.7517865e-16 -1.5084311e-15 -1.6853796e-15 -1.3445124e-15 -1.9274463e-15 2.2796373e-15
-7.4841163e-16 -2.5204444e-15 -0.040745262 -0.09269691 -0.02545334 -0.00032468612 -0.06676668 -0.042692374
0.087883845 0.0034556235 -0.06653025 0.00052492856 0.0025530965 0.002995785 9.051361e-05 0.00078024575
0.0023772598 -0.0005330758 2.9163804e-05 0.00029505702 -9.233875e-08 3.9308997e-08 5.9467675e-07 -1.2486566e-10
2.0368482e-10 1.5941334e-08 1.3897157e-31 -6.0444745e-19 1.1314537e-12 0.03391637 0.07902793 0.098669894
0.079985335 0.04019125 0.071486175 0.01727534 0.06697003 0.107072026 0.035599343 0.019659473
0.034301654 0.060196545 0.00096727774 -0.003926534 0.072471134 0.033865266 -0.043658827 0.09220436
0.124633186 0.050207134 0.050294414 0.07809723 0.034483135 0.0054382323 0.012115157 -0.0084149055
-0.09256222 0.075130835 0.08377737 -0.031324442 0.016892824 0.09718041 -0.00723033 0.02679759
0.04092041 0.0067516305 -0.024635661 -0.016072286 -0.070033096 -0.06081382 -0.020009609 -0.022952147
-0.03828391 -0.045963835 -0.08149903 -0.13983358 -0.12950875 0.035561893 -0.006776261 -0.023287233
0.12988377 0.13518667 0.036775548 -0.023873996 -0.08713651 -0.13280365 0.023852343 -0.05822282
-0.06553517 0.04007081 0.044335496 0.030637505 -0.00504788 -0.007999319 0.10143954 -0.04591229

out0.0.bias f4 [3]
00000000: 7c01 2c3d c223 003b a0ad 67bd
0.041993603 0.0019552563 -0.056562066

stem1.0.weight f4 [64, 3, 1, 1]
00000000: d4fd 41be e1a4 b6bd d15a 493e edbf ae3d
00000010: 5abf fe3e 8acc cb3d 017b 81be afee 2abe
00000020: 51a9 e7be 12fa 6dbe e8a6 2e3e 99f2 0dbd
00000030: 4eef e4be ef3f e0be 1555 683e e28e cebe
00000040: aee8 d1be b524 a0be daa1 123f 8bc1 cbbd
00000050: 5d81 55be 13e1 59be 03f5 d33e f587 05bd
00000060: ba96 183e 499d 3c3e d970 463e 5e20 b13e
00000070: 0a0f c63c 6c3f bb3d 4e68 23bd 047d d5be
00000080: a981 b2bd a09d 183f 4457 abbe 2e78 93be
00000090: bc1b 0abf 51a3 8c3d b6b6 09bf d0a1 90be
000000a0: 2b4c 033f e820 3d3e b10b a83e 2334 f23d
000000b0: eb52 dfbe 21bc 40be 238b dbbe 716a a6be
000000c0: d0ec 5d3e 582f b0bd db34 fe3e e8d1 c6be
000000d0: 2564 f1be 084c 123f 2e15 f9be 4930 e63e
000000e0: bc0d f63d 6df5 0abf 225a 013f 111e 00be
000000f0: 2180 cfbd fa8e b3be 5596 dabe 30f4 fd3c
00000100: 105e 18bf 7bc4 2b3e 3158 10be de12 423e
00000110: 9638 febd 4f80 4e3e 173e e83b e600 553e
00000120: 6030 92be 394b e3be e98e 613d 8c08 b2be
00000130: f6a3 b2be df59 04bf a113 37be 8baf bdbe
00000140: bd51 df3e f3a4 c43e bc2a 313e 943c e73e
00000150: eb1b a03e fa9b f9be 17ef 7bbb 3db9 9ebd
00000160: 80d5 a7be 0087 1c3e 2107 1dbe 05a9 80be
00000170: c642 89bc b9f4 a7be eb2a 023f c439 b73e
00000180: 62f2 ec3e e174 2ebe 8fc6 0f3e ea6b 793a
00000190: e5ce dabe 80ba 8f3e b02b c8be 4d96 73be
000001a0: 1a4f 87be 7082 00bf 98e8 ac3c f819 c53d
000001b0: 2849 1a3c 8529 e53e 76d6 2b3d f0c1 b9bd
000001c0: af8d 97be 9da6 afbe b23f 0bbe 71f8 a4be
000001d0: b235 ccbe 1520 d0bd b6bc 14be cbad a8be
000001e0: c813 d93e aea9 093f b468 afbe fb95 883e
000001f0: abec 7bbe 5613 8dbd 35f1 ea3e 97b8 e13c
00000200: b46a 13bf 8c3b 023f bbe8 1cbd c08a 98be
00000210: 14d8 bdbe 07f2 d03e 92a0 22bd 336c a53e
00000220: d73f c83e bb5d 55be 7405 803d 7065 afbe
00000230: e98e 053f b634 7abe 7c74 d53e e156 3f3e
00000240: 9d9d af3e cc65 cbbe 447e 7bbc 1fcd a63e
00000250: 892e ee3c 7a79 0f3d 654c 8e3e def4 b7be
00000260: 6cec abbd 1f9e 933e 76f1 a43e 7537 f73e
00000270: be6e c6bd 2690 093e 9296 6dbe 56d7 2bbd
00000280: f251 61be 9170 e13e a058 853d ce4a 833e
00000290: 9569 a73e 9c47 f7bc 35b3 a5bc 8c1f b3bd
000002a0: 3acb 00bf e6f3 1f3d 0e40 2abe 867d e5be
000002b0: 9612 023f 76bb 05bd f34c 4dbe db16 d1be
000002c0: 0f0c cbbe fea8 8d3e 8b0d 4ebe 2465 5ebe
000002d0: a7e8 9abe d85d f43e 813a 08be 1480 693e
000002e0: f012 b13e 8936 f3be 7764 db3e 9594 d8bd
000002f0: 9653 0d3f 3b08 803e b018 10bf 12d8 413d
-0.18944484 -0.08918167 0.1966355 0.08532701 0.49755365 0.09951122 -0.25289157 -0.16692613
-0.45246366 -0.23239926 0.17055857 -0.034655187 -0.44713825 -0.43798777 0.22688706 -0.40343386
-0.40997833 -0.31278005 0.57278216 -0.09949025 -0.2085013 -0.21277265 0.41397867 -0.03260036
0.14901248 0.18419375 0.19378985 0.34595007 0.024177093 0.09142956 -0.039894395 -0.41696942
-0.08716137 0.59615517 -0.33465016 -0.28802627 -0.5394857 0.06867088 -0.5379442 -0.28248453
0.512881 0.18469584 0.3282142 0.118263505 -0.4361795 -0.18821765 -0.4287959 -0.32503083
0.21672368 -0.0860278 0.496497 -0.3883202 -0.47146717 0.57147264 -0.4864897 0.44958714
0.120143384 -0.5428074 0.50528157 -0.1251147 -0.101318605 -0.3507002 -0.4269282 0.031000227
-0.5951853 0.1677417 -0.14096142 0.1895251 -0.12413137 0.20166133 0.00708748 0.20801124
-0.28552532 -0.44393328 0.05506793 -0.34772146 -0.34890717 -0.5169963 -0.17878582 -0.3704799
0.4361705 0.38407096 0.17301458 0.45163405 0.312713 -0.48751813 -0.003844207 -0.07750175
-0.32780075 0.15285873 -0.1533475 -0.25128952 -0.016755473 -0.32803896 0.5084674 0.3578626
0.46278673 -0.17036773 0.14040588 0.00095146766 -0.42735973 0.28071976 -0.3909583 -0.23787804
-0.26427537 -0.5019903 0.021107003 0.09624094 0.009416856 0.4475824 0.041952573 -0.09070194
-0.29600284 -0.34306803 -0.13598517 -0.32220796 -0.39884716 -0.10162369 -0.14525113 -0.32945094
0.42397904 0.53774536 -0.3425957 0.26676926 -0.24602 -0.06888454 0.4588715 0.02755384
-0.5758469 0.5087211 -0.038307887 -0.29793358 -0.37078917 0.40809652 -0.039703913 0.32309112
0.39111206 -0.20836537 0.0625104 -0.34257078 0.5217119 -0.2443417 0.41690433 0.18685485
0.34299937 -0.39726102 -0.015349928 0.3257837 0.029074924 0.03502796 0.2779266 -0.35929006
-0.08394703 0.28831574 0.3221547 0.48284498 -0.09689091 0.13433895 -0.2320197 -0.041953407
-0.22003916 0.44031194 0.065110445 0.2564301 0.3269774 -0.030185513 -0.020227054 -0.087462515
-0.503101 0.03905096 -0.16625997 -0.4482233 0.5080961 -0.03264948 -0.20048885 -0.4083775
-0.39657637 0.27667993 -0.20122354 -0.2171827 -0.30255625 0.47727847 -0.13303567 0.22802764
0.3458476 -0.47502545 0.42850086 -0.10575215 0.55205667 0.2500628 -0.5628767 0.0473252

stem1.0.bias f4 [64]
00000000: 1dc4 8a3e 7d82 49be e4dc f13e 99a5 07bf
00000010: 42b0 06be 4296 1f3f 43cf 1d3f 0e70 b63e
00000020: 2940 b7be db32 e9be 31aa d5be 9859 70bd
00000030: 1bf2 c03e fb14 1b3e f512 11bc 448c 173f
00000040: 1be1 f63e 35a8 78be d71e 89be 4eb1 2c3d
00000050: 780f fc3d 4a3c babd 2832 2f3e 10c1 e53e
00000060: 45c5 34be 7f0f 9c3e 50da 7c3d e7cf 903e
00000070: 7bba 863e 01c5 f0bd c202 5abe e2a6 9c3e
00000080: 9bd3 e4be faa7 ba3e 9139 d6be 294e b13e
00000090: 9426 8e3e 62a8 34be c17b b43e 1441 76be
000000a0: 7954 443e 3be3 2b3e 0a4c 973c 3c99 e53d
000000b0: 9269 73bd cc12 2bbe ec64 be3e 01f6 943e
000000c0: 52f5 5d3e db0e e93e 616c 64be 7227 93bd
000000d0: c67f 05bc 33b0 0c3f 1b42 e1be 78ba d1be
000000e0: 679f 55be d589 e4be 4329 d3be 630f e13e
000000f0: 077c bc3d aa5d 0dbf aab3 f9bd 967b acbd
0.27102748 -0.19678684 0.4723884 -0.52987057 -0.13153175 0.6233865 0.6164438 0.35632366
-0.35791138 -0.45546612 -0.41731408 -0.058679193 0.37684712 0.15144722 -0.008854617 0.59198403
0.48218617 -0.24282916 -0.2678134 0.04216128 0.12307638 -0.090935305 0.17108977 0.44873857
-0.17653377 0.30480573 0.061731637 0.28283617 0.26314148 -0.117563255 -0.21290115 0.3059607
-0.44692692 0.3645628 -0.41840795 0.34629944 0.27763808 -0.17642358 0.35250667 -0.24048263
0.19172849 0.167859 0.018468875 0.11210868 -0.05942685 -0.16706389 0.37186372 0.29093936
0.21675614 0.45519146 -0.22306968 -0.07185258 -0.008148139 0.5495636 -0.43995747 -0.40962577
-0.20861588 -0.44636407 -0.41242418 0.43957052 0.09203344 -0.55221045 -0.12192471 -0.0842201

out1.0.weight f4 [3, 64, 1, 1]
00000000: 42b7 d8bd a15f 49be a617 31bc 214a ccbd
00000010: c8b3 53bc f189 2dbe ebb0 27be 0d66 c4bd
00000020: a102 0bbe 0b91 fc3c ee50 8f3b 79fe 903d
00000030: d0df 3dbe 112f 943c 33af 6c3d 57a7 dcbd
00000040: 3972 94bd 1ab1 94bd 8e16 1b3d 161e 1dbe
00000050: 4f15 6b3d b2e0 febd 1920 11bd e083 30be
00000060: 7f27 55be 019b 2abe 56e2 173c aeb4 16be
00000070: 312a b83c 718f a5bd eb79 5bbd 94b7 cdbd
00000080: cc4c e7bd cec6 d3bd 514a 28be 7f8f 6e3d
00000090: 04e0 cdbd ae0a 07be 5b8c 5abe 8158 9ebd
000000a0: 2e89 89be b1fb 78bd efa9 843d 024e 2dbe
000000b0: bed4 153d 993c 15be e762 2cbe 2957 4ebe
000000c0: 62a7 2a3c 628f 4abe 0b02 7abc 0aef 59bd
000000d0: bcc0 ab3c 08f3 2fbe 5270 573d c4b7 58be
000000e0: cb1a 5fbe c882 283c 12de a1bd a001 07be
000000f0: 5a7b b1bd 9031 2fbe df5a 45be a5aa bfbd
00000100: fb7c ce3d c253 563d 7d37 8f3d 6c62 e7bc
00000110: 7394 f33d 80f7 3c3d 4eab 493d 480e e33c
00000120: feb1 033e e094 303d 00bc db3d bd8f be3d
00000130: a910 063d 3c30 983d 0942 15bd 5737 3e3e
00000140: 5f19 363d 010d cf3d cc6b d7bc 6523 e7bd
00000150: b8ea 003d 7b29 933d a284 e93d 73cf 693d
00000160: 1272 613d 39cc d03d 30cc 94bd 2903 e73d
00000170: 3fbe b33d 5b50 c33d 6426 c83d 0283 9bbd
00000180: a5c6 913d 996a e03d 5300 a4bd 597c ca39
00000190: c568 6abd 70e1 98bc ae3a ed3c 6e88 a03d
000001a0: 8d58 cfbc 1553 e5bd 20a1 273d bac7 623d
000001b0: b121 0cbd 9332 aa3d ebde d43d 4356 feba
000001c0: cf37 b53b c8a5 f23c 56d0 d639 c9bf c6bc
000001d0: ddc6 49bd 7b9a 5fbd ad3a 3a3e 78be bfbc
000001e0: 9cc2 5fbd 2e60 d23d d8df dd3c 7ab1 aa3d
000001f0: 33e1 003e 0e90 04bc 591f 983c ac35 0d3e
00000200: 8bba 45bd 8350 b2bc a632 b83d 522f c4bc
00000210: 53ce 683c 2f09 da3d 791f 88bd bca9 cebc
00000220: 5910 753e cf36 b7bd 8c46 c9bd 7f3a b6bd
00000230: 4265 103e 3e01 f8bd d4d5 4bbd bb1d 333e
00000240: 7c5e 92bd f478 953d fcbb 01bd dc5b 0b3d
00000250: 722a a43c b4cc afbc 9f7c df3c 0d42 d53d
00000260: 343e b9bd b034 a83d 937c e43c fcaf 26bc
00000270: cd99 52bd c859 963c 9f74 a23d ecf4 ebbd
00000280: ae02 d9bd 268c bebd 35f6 8c3c 9e74 0bbd
00000290: 2628 4ebd dfa1 e33d cc92 3b3b 69dc 96bd
000002a0: 6583 33bc a41f 6dbd e89f e0bc 583c 603d
000002b0: 8b62 053d 604b b3bd 5ce8 0f3e 0242 8d3d
000002c0: 810a acbd fd57 373d 93c1 143d a092 acbd
000002d0: 2420 eabc 0def b7bd 0593 183e 149e eb3b
000002e0: f360 413d b859 75bd 3676 993d fa53 b2bc
000002f0: 670b 04be 26b9 f8bb 2db5 a73d 2218 fd3b
-0.10581829 -0.19665386 -0.010808861 -0.099750765 -0.012921281 -0.16947152 -0.16376083 -0.09589777
-0.13575222 0.03083088 0.0043736612 0.07079787 -0.18542409 0.01808885 0.05778427 -0.10774105
-0.07248349 -0.07260342 0.037863307 -0.15343508 0.05739337 -0.12445201 -0.035431 -0.17237806
-0.20815848 -0.16660692 0.009270271 -0.14717361 0.022481056 -0.08084 -0.053583067 -0.100447804
-0.11293945 -0.10340653 -0.164346 0.058242317 -0.10052493 -0.13187668 -0.21342604 -0.077317245
-0.26862472 -0.060786907 0.06477725 -0.16924289 0.03657984 -0.14573897 -0.16834603 -0.20150436
0.010415884 -0.19781259 -0.015259276 -0.05320648 0.020965926 -0.17182553 0.05259735 -0.21163851
-0.21787564 0.010285087 -0.07903685 -0.13184214 -0.086661056 -0.1710875 -0.19272946 -0.0935872
0.10082432 0.05232597 0.069930054 -0.028245173 0.11893549 0.046134472 0.049235635 0.02771677
0.12860867 0.04311073 0.107292175 0.0930476 0.032730732 0.07431075 -0.03643993 0.18575798
0.04445779 0.10109902 -0.026296519 -0.11286048 0.031473845 0.07185646 0.11402251 0.057082605
0.055040427 0.101952024 -0.07265508 0.112798996 0.08776521 0.09536811 0.097729474 -0.07593347
0.071179666 0.10957832 -0.08007874 0.0003862109 -0.057228822 -0.018662184 0.028958645 0.07838522
-0.025310779 -0.11197487 0.040925145 0.055366255 -0.034211818 0.083104275 0.10394081 -0.001940437
0.0055303345 0.029620066 0.00040972483 -0.024261372 -0.049261916 -0.054590683 0.18186446 -0.023406252
-0.054628953 0.10272251 0.027084276 0.08334632 0.12585907 -0.008090986 0.018569635 0.13790005
-0.048273604 -0.021766907 0.089940354 -0.023948345 0.014209348 0.10646283 -0.06646628 -0.02522742
0.23932017 -0.08946001 -0.09827909 -0.08897876 0.14101127 -0.12109612 -0.04976447 0.1749181
-0.07146928 0.072984606 -0.031673416 0.03402315 0.02003977 -0.021459915 0.027281104 0.10412989
-0.090450674 0.08213174 0.027891433 -0.010173794 -0.051416207 0.018353358 0.079324 -0.115213245
-0.10596214 -0.09304075 0.017207244 -0.03404676 -0.050331257 0.11114859 0.0028621433 -0.07366259
-0.01095662 -0.057891503 -0.02742 0.05474505 0.03256468 -0.08754611 0.14053482 0.068973556
-0.08400441 0.044761647 0.03631742 -0.08426404 -0.028579779 -0.08981142 0.14899834 0.0071904752
0.0472116 -0.059900016 0.0749325 -0.021768559 -0.12894975 -0.007590431 0.081888534 0.007723824

out1.0.bias f4 [3]
00000000: 2bd7 d9bd 1a77 96bd 4ec8 c2bd
-0.10636743 -0.073469356 -0.09510861

exp_avg f4 [64, 3, 3, 3]
00000000: 26db 72ba 50be 5cba a50e 74ba 97aa 85ba
00000010: 15e8 82ba 0305 91ba 4372 a3ba 14be a7ba
00000020: 03e4 b4ba e355 66ba a9f5 54ba 463e 51ba
00000030: 2f4e 77ba 9d56 75ba 50d4 81ba e50b 8bba
00000040: 0efc 92ba 7a8b 95ba 7aac deba 3522 d5ba
00000050: 0d0b c2ba 5ac6 e3ba ae7f e5ba 7803 d9ba
00000060: ff20 f1ba 5e1b f5ba 3836 e7ba 1c9b 16b9
00000070: 0882 18b9 923c 23b9 e4f3 d8b8 9a3c b7b8
00000080: 0bc8 07b9 a6de a3b8 167d ccb8 e645 d7b8
00000090: 689f e9b9 d225 d8b9 9101 efb9 3125 dab9
000000a0: 06ea c9b9 a475 dcb9 2aad e3b9 502b d9b9
000000b0: 0d8e d8b9 f00d 3fba bdce 36ba 7f4f 42ba
000000c0: ff76 3cba 528f 2fba fe2c 35ba f0c7 37ba
000000d0: 622f 31ba 7636 36ba 0e00 95b9 88c2 75b9
000000e0: 9c12 43b9 e897 b3b9 acc3 7eb9 92ee 53b9
000000f0: 231a c8b9 69e3 a2b9 e108 9db9 d21f 4cba
00000100: 03dd 42ba f5ca 41ba d4c6 49ba 99c1 42ba
00000110: 412c 40ba e4f3 4aba 4088 57ba 704b 59ba
00000120: 9eb9 c0ba e957 bdba 737d bdba cec5 beba
00000130: 7292 c1ba 8446 c6ba 95f6 c3ba f15d cbba
00000140: 821d cfba 81e3 e9ba 50c4 eaba 00d3 ebba
00000150: 801a edba bfb5 eaba 813c e6ba 8648 eaba
00000160: ed8a e4ba 1816 e5ba 007d b7ba 2328 b7ba
00000170: 92de b2ba 4588 b9ba 996f b9ba c5c2 b3ba
00000180: c359 b4ba a7e7 b1ba 0ceb b2ba 52be 65ba
00000190: 447f 5dba cce0 59ba 9cf3 63ba 3448 5dba
000001a0: 43fc 5aba 9665 5aba a03e 59ba f8a0 59ba
000001b0: bbf8 ac39 1fa4 af39 9df2 aa39 706b ac39
000001c0: 381f a439 ba8e ae39 a2a4 a939 a387 9e39
000001d0: ea47 a239 2938 b439 391a b739 4346 b939
000001e0: 1270 af39 2368 ae39 691e ab39 3e94 a739
000001f0: 6e08 9e39 fd45 a339 7b5b b639 6afa b439
00000200: b9ff b839 78c4 a839 7782 ae39 aeb9 b539
00000210: 1c8b a039 c5fc a739 c158 b339 d9a6 0f39
00000220: 4ae9 1239 e23c 1039 e120 1539 fcd9 1b39
00000230: 0ce9 1e39 0d41 1b39 49c1 1e39 4b8a 0c39
00000240: f98f 3c39 746d 4039 edb2 5339 fccd 4139
00000250: 0d64 3839 5f1f 3539 dfd3 2539 69ab 2939
00000260: 7257 3839 8307 b039 90bb ad39 ecc2 a039
00000270: e88a aa39 79a2 9c39 2c6d a339 81b4 9a39
00000280: 7ec4 9c39 fc08 a039 3f4f 87b9 b72d adb9
00000290: 2d9a b0b9 a38d 9db9 219c acb9 1bd0 cfb9
000002a0: 194e cab9 acce bbb9 12f3 ebb9 f9cc 92ba
000002b0: 713d 97ba 1a73 8fba b215 9eba a40e 9fba
000002c0: d82d a1ba e365 9eba 9f88 9eba 7ecc a8ba
000002d0: 51d8 88ba 483e 88ba 5856 5fba 68e0 91ba
000002e0: 75f8 8dba 8b9d 81ba 0401 92ba 010a 8fba
000002f0: 0fb9 8cba e319 6fba a4de 56ba 2688 4fba
00000300: e0a2 7dba dab1 5fba 65d1 63ba 8aa3 8dba
00000310: e628 84ba 0473 85ba fe44 b939 7fbb e739
00000320: 5f11 073a 7353 c039 0b5a d639 4e9e e339
00000330: b6e2 9f39 7ba4 b339 cfe8 a139 1d9e 3dba
00000340: fb7c 2eba 7c25 0bba 6bb6 48ba 8b03 3fba
00000350: 877d 23ba 6dbb 50ba 65b3 50ba 0d41 3fba
00000360: 7752 b139 da7f b439 946e c239 e5f6 ad39
00000370: 9652 b539 4284 bf39 14f6 b739 b743 b639
00000380: 596f ae39 0f85 db39 615f d139 752b dc39
00000390: 0399 c939 0027 cf39 741a d739 5765 cc39
000003a0: dac6 cc39 ff63 da39 b1f3 243a 94ac 1f3a
000003b0: 324d 2a3a 87ef 183a cd41 1c3a 37d8 253a
000003c0: 501c 193a fa44 1f3a 0cbe 203a 8ccb 163a
000003d0: b7d7 1e3a 5655 163a e88d 223a 6f87 223a
000003e0: c55d 213a fd06 213a 7cfa 263a 002e 293a
000003f0: 88b3 153a c7a2 1a3a 0d20 113a 1c4c 173a
-0.0009264223 -0.0008420693 -0.00093100435 -0.0010197934 -0.0009987379 -0.0011064116 -0.0012469966 -0.0012797737
-0.0013800863 -0.0008786602 -0.00081237644 -0.0007981997 -0.00094339525 -0.00093589147 -0.0009905193 -0.0010608403
-0.0011214034 -0.0011409365 -0.0016988658 -0.0016260805 -0.0014804319 -0.0017377839 -0.0017509365 -0.001655682
-0.0018396674 -0.0018700173 -0.001764006 -0.00014362897 -0.0001454429 -0.00015567456 -0.00010345111 -8.737408e-05
-0.00012949125 -7.813917e-05 -9.750777e-05 -0.000102650185 -0.0004455999 -0.0004122691 -0.000455868 -0.0004160791
-0.0003851207 -0.0004204932 -0.0004342583 -0.00041421736 -0.00041304567 -0.00072881486 -0.00069735554 -0.00074123585
-0.00071893627 -0.00066970766 -0.00069113064 -0.0007010689 -0.0006759075 -0.00069508643 -0.00028419535 -0.0002343749
-0.00018603582 -0.0003425472 -0.00024296221 -0.00020211402 -0.00038166446 -0.00031068482 -0.0002995199 -0.0007786724
-0.0007433446 -0.00073926087 -0.0007697169 -0.0007429361 -0.0007330813 -0.0007742031 -0.0008221902 -0.0008289134
-0.0014703756 -0.0014445755 -0.0014456942 -0.00145548 -0.0014768376 -0.0015127216 -0.0014950807 -0.0015515668
-0.0015801641 -0.0017844291 -0.0017911289 -0.001799196 -0.0018089563 -0.0017906948 -0.0017565639 -0.0017874397
-0.0017436423 -0.0017477898 -0.0013999045 -0.0013973754 -0.0013646653 -0.0014154991 -0.0014147639 -0.0013714662
-0.0013759661 -0.0013573066 -0.0013650372 -0.00087640167 -0.0008449445 -0.00083113904 -0.00086956634 -0.000844124
-0.000835363 -0.00083311775 -0.0008287225 -0.0008301879 0.00032991715 0.0003350088 0.00032605688 0.00032886444
0.00031303777 0.00033294206 0.00032356853 0.00030237166 0.00030952628 0.00034374118 0.00034924017 0.000353383
0.000334621 0.00033265454 0.0003263832 0.0003196317 0.0003014239 0.00031141928 0.00034781903 0.00034518848
0.00035285743 0.00032189838 0.0003328507 0.00034661352 0.00030621223 0.0003204105 0.00034207667 0.00013699698
0.00014010552 0.00013755591 0.00014221996 0.00014863157 0.00015154871 0.00014806185 0.00015140059 0.00013402959
0.00017982711 0.00018351321 0.00020189183 0.0001848265 0.00017584879 0.00017273192 0.00015814554 0.00016180951
0.00017580183 0.00033574933 0.00033136876 0.00030662806 0.0003252842 0.0002987569 0.00031171122 0.00029507655
0.00029901037 0.00030524272 -0.0002580825 -0.00033031192 -0.00033684206 -0.000300509 -0.00032922722 -0.00039637167
-0.0003858663 -0.00035821402 -0.00045003794 -0.0011200003 -0.0011538697 -0.0010944337 -0.0012060909 -0.00121351
-0.0012296988 -0.0012084808 -0.001209516 -0.0012878326 -0.0010440444 -0.0010394538 -0.0008519641 -0.00111295
-0.0010831492 -0.000988887 -0.0011139219 -0.0010913016 -0.0010736304 -0.0009120984 -0.0008196628 -0.0007916711
-0.00096754543 -0.0008533277 -0.0008690565 -0.0010806185 -0.001008299 -0.0010181372 0.00035337353 0.0004419945
0.000515243 0.00036683268 0.00040884348 0.0004341476 0.00030495756 0.00034264088 0.0003088177 -0.00072333385
-0.0006656197 -0.0005308015 -0.0007656577 -0.00072866 -0.00062366616 -0.0007962499 -0.0007961302 -0.0007295765
0.00033821512 0.00034427532 0.0003708495 0.00033181082 0.00034584542 0.000365289 0.00035087822 0.00034764197
0.00033270827 0.0004187007 0.0003993465 0.00041994048 0.0003845171 0.00039511174 0.00041027705 0.00038985416
0.00039058068 0.00041654703 0.00062924164 0.0006091085 0.00064964883 0.0005834032 0.0005960733 0.0006326469
0.00058407057 0.0006075647 0.0006131835 0.0005752377 0.00060593657 0.0005734762 0.0006200955 0.0006199991
0.00061556353 0.0006142704 0.00063697225 0.0006453693 0.0005710651 0.00058988895 0.0005536087 0.0005771534

exp_avg_sq f4 [64, 3, 3, 3]
00000000: 6d7e c737 4516 cf37 add9 ce37 2730 cc37
00000010: 7b3c d337 221f d237 f9c5 c837 5c68 ce37
00000020: 57b2 cd37 8ed4 f637 3680 f637 a631 fa37
00000030: 1673 f237 2207 f337 f762 f737 5beb f537
00000040: 1e0d f637 4e5a fa37 29ad 3938 b18a 3938
00000050: e2bb 3a38 97fc 3638 9b6b 3738 0544 3938
00000060: 1210 3938 7216 3938 3797 3a38 c07b 2437
00000070: 7fb0 2737 43c2 2a37 4c18 2737 d3cc 2a37
00000080: 5f6f 2e37 4661 2a37 4ea3 2d37 67a7 3037
00000090: f3db ef37 39b3 ef37 4235 ef37 dbff ee37
000000a0: b8ec ee37 4f49 ef37 08d8 ed37 8548 ee37
000000b0: 222f ee37 743d 0538 fdc4 0338 dd40 0338
000000c0: f39b 0438 8957 0338 4139 0338 3b0a 0538
000000d0: 2013 0438 7632 0438 f7a7 4937 09b8 4b37
000000e0: ee52 4837 aaa9 4837 5a67 4a37 941a 4537
000000f0: 1cbf 4137 c939 4137 fba7 3b37 ca10 3036
00000100: 1253 2d36 8554 2a36 f849 2b36 c322 2836
00000110: f52b 2a36 eebe 2936 5e3e 2636 7788 2b36
00000120: 3536 b636 13d4 b636 70ae b936 2f92 b136
00000130: 56af b236 9a4a bb36 7d61 b236 637c b436
00000140: a296 bf36 e8a1 7c36 be60 6f36 8aa7 5436
00000150: 9bbe 7736 ec7b 6c36 2f8a 5236 7488 7036
00000160: 5018 6736 52fd 5236 e1bc d036 46b0 ca36
00000170: 8ede c036 c0b3 cd36 e1b1 c736 ee40 be36
00000180: 7d5d ca36 828e c436 a34e bd36 f414 6036
00000190: 414e 5d36 6c02 5536 209f 5a36 189d 5536
000001a0: 9256 4c36 71c5 5436 9849 4d36 84c0 4536
000001b0: 798a 6a33 cf2b 6733 b75e 6933 d588 6033
000001c0: 419e 5733 8b82 6033 3442 5f33 1d8a 5433
000001d0: d434 5933 b996 a734 0a44 a534 b57b ac34
000001e0: 2b52 a034 e076 9d34 e540 a334 d866 a034
000001f0: b575 9d34 c9f2 a234 d2ca 2435 242c 2435
00000200: 4df7 2b35 de48 1e35 5da8 1c35 aefd 2235
00000210: cf37 1e35 12e3 1b35 61db 2135 7bff 6333
00000220: 8677 6233 4c21 6733 fbf5 5d33 18b4 5c33
00000230: 48f0 6033 fab5 5f33 60cb 5d33 641d 5c33
00000240: 5806 6b34 0947 6434 f61e 6d34 4a64 5c34
00000250: 24d8 5634 75d4 5d34 1e34 5934 3cc8 5334
00000260: 9e50 5934 3ea2 1735 f4c6 1335 43c5 1635
00000270: f71e 1035 294b 0c35 60e9 0e35 e7a6 0d35
00000280: f9cc 0935 0724 0c35 f43f 2a39 de68 2839
00000290: a747 2739 253f 2d39 79ac 2b39 8ff1 2939
000002a0: 9840 2f39 fa76 2e39 b0c6 2c39 3d82 ad39
000002b0: 1ca6 ab39 36f2 a939 196d af39 3a8e ad39
000002c0: af6b ab39 22db b039 c573 af39 9793 ad39
000002d0: 715b bc39 7873 ba39 f4fc b739 a451 be39
000002e0: 0d9c bc39 9a7c b939 3986 bf39 ab51 be39
000002f0: 6073 bb39 e76d 9237 0b0b 9a37 3f94 9b37
00000300: 9f9d 9837 124e a037 c916 a137 a58d 9937
00000310: f853 9f37 7385 9f37 5c1e 0338 c769 0238
00000320: 9d66 0338 5010 0038 fb38 ff37 a0bb 0038
00000330: 8ad3 ff37 c1b3 fe37 9637 0038 eff5 2d38
00000340: ac1e 2d38 f1c6 2d38 4bb2 2a38 aa06 2a38
00000350: d92c 2b38 e84a 2a38 a867 2938 826b 2a38
00000360: 272e 7233 8fa4 7033 c529 8133 fa78 6733
00000370: 2a9d 6733 19c2 7633 fbc6 6f33 d20d 6d33
00000380: a227 7333 9d13 4635 d115 4235 17c4 4a35
00000390: 7bb8 4135 d794 3f35 5bf1 4935 2b68 4835
000003a0: 5f94 4935 585b 5835 ef85 e335 66eb e135
000003b0: 4934 ed35 eb92 e035 450a e035 897c ec35
000003c0: e17c e835 c105 ea35 1d9c f835 af3e 1436
000003d0: 09bd 1936 8b66 1d36 c6cf 1a36 6f73 2136
000003e0: 5b8c 2236 9e81 1d36 d011 2536 be24 2636
000003f0: e094 ed36 3046 f036 0313 f636 03c8 ed36
2.378152e-05 2.4686693e-05 2.4658477e-05 2.4341118e-05 2.5181324e-05 2.5048448e-05 2.3934046e-05 2.460571e-05
2.452095e-05 2.9424464e-05 2.9385188e-05 2.9825442e-05 2.890224e-05 2.8971179e-05 2.9490779e-05 2.9315872e-05
2.9331593e-05 2.9844374e-05 4.4268705e-05 4.4236604e-05 4.4520835e-05 4.3627424e-05 4.3730815e-05 4.4170785e-05
4.4122404e-05 4.412834e-05 4.4486686e-05 9.8039745e-06 9.995069e-06 1.017802e-05 9.959633e-06 1.0180479e-05
1.0397139e-05 1.0155438e-05 1.0349626e-05 1.0529394e-05 2.8593442e-05 2.8574477e-05 2.851582e-05 2.8490953e-05
2.8482042e-05 2.8525157e-05 2.8353199e-05 2.840558e-05 2.8393759e-05 3.1766904e-05 3.1416293e-05 3.1293243e-05
3.161649e-05 3.1314357e-05 3.1286156e-05 3.17192e-05 3.1489064e-05 3.1518248e-05 1.2019641e-05 1.2142592e-05
1.19402375e-05 1.1960432e-05 1.2064202e-05 1.1748303e-05 1.1548193e-05 1.1517151e-05 1.118518e-05 2.6235816e-06
2.5827362e-06 2.538117e-06 2.552404e-06 2.5054185e-06 2.535756e-06 2.5294098e-06 2.477223e-06 2.5560419e-06
5.430333e-06 5.4487114e-06 5.533737e-06 5.292029e-06 5.325225e-06 5.581719e-06 5.3161625e-06 5.3788985e-06
5.7097795e-06 3.7645168e-06 3.5670087e-06 3.1687982e-06 3.6916815e-06 3.5238872e-06 3.1372872e-06 3.5842213e-06
3.4435834e-06 3.143989e-06 6.2208715e-06 6.04059e-06 5.7479547e-06 6.1304017e-06 5.95137e-06 5.67e-06
6.0309526e-06 5.8578453e-06 5.6417935e-06 3.3390797e-06 3.2977116e-06 3.1740883e-06 3.2577154e-06 3.1830914e-06
3.044876e-06 3.1705388e-06 3.0590218e-06 2.9467346e-06 5.460831e-08 5.3823722e-08 5.4335683e-08 5.2278512e-08
5.020252e-08 5.2272792e-08 5.1981445e-08 4.948571e-08 5.0572297e-08 3.121584e-07 3.078315e-07 3.2127505e-07
2.9862107e-07 2.9330022e-07 3.0408333e-07 2.987715e-07 2.9329172e-07 3.03515e-07 6.1389903e-07 6.1158994e-07
6.4062334e-07 5.896562e-07 5.835953e-07 6.0718855e-07 5.89408e-07 5.807243e-07 6.029641e-07 5.3084914e-08
5.272843e-08 5.3814162e-08 5.167929e-08 5.1386536e-08 5.23726e-08 5.208674e-08 5.164054e-08 5.1249472e-08
2.1888388e-07 2.1259997e-07 2.2083609e-07 2.0525582e-07 2.0008935e-07 2.065952e-07 2.022866e-07 1.9723751e-07
2.0239028e-07 5.6487977e-07 5.505128e-07 5.616641e-07 5.368924e-07 5.2263437e-07 5.323873e-07 5.276947e-07
5.133475e-07 5.220649e-07 0.00016236288 0.00016060795 0.00015953054 0.00016522089 0.00016372082 0.00016207084
0.00016713364 0.00016638255 0.00016477215 0.00033094166 0.00032739423 0.00032414653 0.00033459885 0.00033103098
0.00032695892 0.00033732603 0.00033464856 0.00033107094 0.00035926283 0.00035562715 0.00035092945 0.0003630045
0.0003597442 0.00035378785 0.00036530363 0.0003630047 0.0003575338 1.7455734e-05 1.8363373e-05 1.8546472e-05
1.819321e-05 1.910984e-05 1.9203306e-05 1.830498e-05 1.8993378e-05 1.901642e-05 3.126111e-05 3.1092928e-05
3.13284e-05 3.053277e-05 3.0424902e-05 3.0692318e-05 3.0496874e-05 3.0362864e-05 3.0569347e-05 4.1475458e-05
4.127498e-05 4.1431693e-05 4.0697207e-05 4.0537365e-05 4.0811345e-05 4.060092e-05 4.0389277e-05 4.0631283e-05
5.638699e-08 5.602902e-08 6.0146284e-08 5.3893906e-08 5.392682e-08 5.745287e-08 5.5827496e-08 5.5193432e-08
5.6613892e-08 7.378929e-07 7.230238e-07 7.553621e-07 7.216656e-07 7.1369635e-07 7.5229553e-07 7.465739e-07
7.5094243e-07 8.0599193e-07 1.6951798e-06 1.6832316e-06 1.7673093e-06 1.6732059e-06 1.6692289e-06 1.7619615e-06
1.7321692e-06 1.7436033e-06 1.8522875e-06 2.2090205e-06 2.290881e-06 2.345451e-06 2.3068728e-06 2.405806e-06
2.4221579e-06 2.347027e-06 2.4597284e-06 2.4757314e-06 7.0804817e-06 7.1607283e-06 7.3335846e-06 7.086435e-06

exp_avg f4 [64]
00000000: 6f4f 86b9 d339 31ba 056d 03ba a9ca cebb
00000010: f925 243b 9853 593a 6542 3abb c4fb c93a
00000020: a50e 403b 18e7 8a3b 729d 0c39 92bc 933b
00000030: 494f a4ba 1356 91b8 5a23 423a a7d4 1b3a
00000040: 221f fd3a c17b 5fa3 a016 7939 2f52 8cb5
00000050: 919a 3fb6 bec5 803b 7d30 593a 1dd9 b7b9
00000060: 4711 9539 8327 a3b9 a956 1438 6280 b8ba
00000070: ecbb b0ba dd6e 973b 0ade f6ba e5ba b8b8
00000080: 6078 e237 72b0 8a39 a322 95b8 b752 9fb9
00000090: 26d4 3d3a a733 1c35 5e49 8a38 be88 3d38
000000a0: a422 f338 7ccb 78ae d958 fba8 25c2 2738
000000b0: 9ac3 943a 1666 a0ba 71ba 3f3a b84f a638
000000c0: 73d4 323b 2a20 f7ba 19ea cabb 0f7a 5338
000000d0: a755 85ba b661 6b3b 93b0 14ba 6336 e13a
000000e0: 8493 f53a f28c 20ba bcc8 acb6 45db 213b
000000f0: 6ca1 133b 6aee a43a 40e3 a6b9 b825 9439
-0.00025617654 -0.00067606306 -0.00050134986 -0.00631078 0.0025047048 0.00082903495 -0.0028420922 0.0015410115
0.0029305604 0.0042389743 0.00013410093 0.0045085633 -0.0012535836 -6.9301714e-05 0.00074057805 0.00059444684
0.0019311646 -1.211506e-17 0.00023754919 -1.0454731e-06 -2.8551187e-06 0.0039298227 0.00082851184 -0.00035066242
0.00028432367 -0.0003111922 3.536666e-05 -0.0014076347 -0.001348374 0.00462137 -0.0018834483 -8.8086155e-05
2.6997353e-05 0.00026452873 -7.111325e-05 -0.0003038847 0.00072413904 5.818969e-07 6.5940185e-05 4.5188463e-05
0.00011593595 -5.6569402e-11 -2.790513e-14 3.9996714e-05 0.0011349798 -0.0012237455 0.0007313854 7.9303456e-05
0.0027287274 -0.001885419 -0.0061924574 5.0419996e-05 -0.0010172621 0.0035916395 -0.00056720636 0.0017182346
0.001873598 -0.0006124518 -5.149368e-06 0.0024697345 0.0022526635 0.001258326 -0.00031831302 0.00028256862

exp_avg_sq f4 [64]
00000000: d89a de37 b54d 8238 4bd9 5036 f38e 2d38
00000010: 35da 4138 ee92 da37 7bf6 023a ab32 2738
00000020: 83f4 a938 ed74 8d37 b61e 1135 5e0c 3339
00000030: 6284 0b37 e5d1 2a36 4b46 1338 df50 ef37
00000040: 930c e337 de9b f72a bbdf 0936 ff86 7031
00000050: e272 2131 c96c 0739 3eb9 d636 967a 0539
00000060: 053e 9937 fa34 8237 34ba 2636 e178 0f37
00000070: 2cc7 b736 ada1 0338 5821 6a38 b219 5435
00000080: 3036 5638 8441 ad36 9328 2737 a34e 0337
00000090: ec70 0137 1374 a933 bff5 8a38 3ddc 3636
000000a0: 3e3e 2736 b060 e22b ab9b 2d2c 0034 4f33
000000b0: 94d7 f137 eeca 0e39 905d fe36 93df 5836
000000c0: f64c d038 ed5a 1637 66bf 1839 069e d035
000000d0: 7a12 2837 1b5d bf38 cad7 9137 3e6b a638
000000e0: 6799 4138 abd2 5438 be1d 0631 c9cf c238
000000f0: ad2e 1c39 db09 a037 d322 2438 be2a b735
2.6536567e-05 6.213357e-05 3.1120896e-06 4.1379546e-05 4.6218007e-05 2.6056045e-05 0.0004995835 3.986309e-05
8.104092e-05 1.6862958e-05 5.40614e-07 0.00017075377 8.315868e-06 2.5454149e-06 3.5112997e-05 2.8528679e-05
2.7066364e-05 4.3984169e-13 2.054482e-06 3.5001333e-09 2.3493887e-09 0.00012915129 6.399262e-06 0.00012729535
1.8267901e-05 1.5521877e-05 2.4844312e-06 8.5516085e-06 5.4770117e-06 3.1383406e-05 5.5821e-05 7.9013546e-07
5.1072042e-05 5.163429e-06 9.963423e-06 7.8265175e-06 7.715291e-06 7.8907895e-08 6.6261266e-05 2.724831e-06
2.492117e-06 1.6085102e-12 2.4671192e-12 4.8243237e-08 2.8829825e-05 0.00013617772 7.580682e-06 3.2316646e-06
9.932548e-05 8.961867e-06 0.00014567151 1.5543199e-06 1.0017882e-05 9.124932e-05 1.7385832e-05 7.935472e-05
4.6157653e-05 5.074094e-05 1.9516473e-09 9.289344e-05 0.00014894707 1.9078076e-05 3.913308e-05 1.3647002e-06

exp_avg f4 [3, 64, 3, 3]
00000000: 785c abb8 8f5a 23b9 325e 8db9 d049 a7b9
00000010: 0011 01ba 0f04 eab9 7767 d7b9 0bf2 ccb9
00000020: 186e 90b9 d485 ac39 5770 b939 fc25 193a
00000030: 0351 b939 4e4a d539 013d ff39 93af f439
00000040: 4396 033a cb43 f639 d79c c5b9 ee81 52b9
00000050: 6653 7139 4de3 2fb9 5782 a6b8 6c63 3239
00000060: c139 8338 7a3b a938 2881 3339 88cc 0ab9
00000070: 0274 c1b7 6bef 5938 967b 56b8 fa7f ba37
00000080: 1380 d238 fa98 dd38 140a 3539 917a 3739
00000090: 9449 cdb9 c188 d2b9 eb18 d3b9 edf5 c5b9
000000a0: a4ff cbb9 c68b c8b9 4a29 b8b9 649c bfb9
000000b0: 7933 bab9 2f72 34b9 6435 4bb9 433b 4cb9
000000c0: dfdf 21b9 216c 34b9 9eef 38b9 9e83 f2b8
000000d0: f2d0 10b9 a0d9 1cb9 6222 36b9 2f50 49b9
000000e0: b687 d2b9 2d59 0cb9 ed32 70b9 c752 f3b9
000000f0: e465 2cb9 1fdd a6b9 0a1a f2b9 159d 22ba
00000100: d923 1aba 81df 1bba 5f0f 29ba 1595 1cba
00000110: c24e f4b9 1f6d e8b9 1374 c9b9 ea27 c6b9
00000120: 0d0c 89b9 fde0 8fb9 99a0 8fb9 768a 85b9
00000130: bb7a 8db9 2eb3 8eb9 b8f2 7fb9 8537 8ab9
00000140: 9021 8ab9 3f9e f239 335b c939 26db f439
00000150: f3b5 eb39 32e8 a339 eba5 ed39 8efa df39
00000160: a0f9 ca39 f2b9 043a a089 1f39 55c8 9838
00000170: d3fe 8539 c8be b7b8 06c2 9b38 0aa8 c338
00000180: 25bd 80b9 1024 70b8 d187 09b7 b705 4bb9
00000190: 782e 76b9 f45e da37 59ac 2db9 c8c5 4db9
000001a0: 39ab 06b8 cd77 c437 0245 0e38 aa1f 2d38
000001b0: df75 59ba 3c10 47ba cbc9 37ba a6da 35ba
000001c0: d784 f8b9 d066 fbb9 91eb 5dba 4ffd 32ba
000001d0: 2bb5 24ba 062f 11ba 5d5b f2b9 e7bb 59b9
000001e0: 3986 16ba 01dd e8b9 5f81 51b9 f63a 0eba
000001f0: 2ae7 1dba 5077 c2b9 29e9 7dba e30f 90ba
00000200: 2a44 a1ba 53d0 8eba a1c5 95ba d2a0 91ba
00000210: 5ef9 91ba 6408 98ba ee37 86ba 1ec4 3aba
00000220: b492 4fba 404e 58ba 82ed 3eba 29dd 4fba
00000230: 22ac 84ba 4a2c 6bba 899d 60ba 495b 97ba
00000240: b16a 5239 05ea bd39 61ab 093a b309 8739
00000250: 6154 a739 b0bc d039 e662 b439 88d6 af39
00000260: 23bb d839 d2ac 3920 4706 52a0 31ac 681f
00000270: 9a04 fa9e 8b34 61a0 fb85 7ca0 5602 0620
00000280: 5a6a 8aa0 3158 5b1f 7b54 f0b9 630f 8db9
00000290: cfb4 a8b9 4121 3eba 162c e9b9 b7b3 c0b9
000002a0: 4fc6 79ba 298e 51ba ba28 20ba 5708 6233
000002b0: dc67 8934 6734 a134 6be6 1b32 fffa a733
000002c0: 26dc 7f34 7186 65b3 3ae8 4831 940f fe32
000002d0: 2115 30ad 19e2 962c a812 8e2e a05f 85a8
000002e0: 6449 d628 8b40 fa2b 48b1 9e04 7f09 e69a
000002f0: f5e8 1e25 48d2 8bba ac1f 86ba aecc 84ba
00000300: b41c 9bba 6541 8dba fa22 7bba 1881 9cba
00000310: 39c8 96ba 7076 92ba 61d6 a1ba 0d1d 86ba
00000320: 45d1 5bba ffda 8fba 15c3 5bba 4083 18ba
00000330: 1871 9aba 1f44 82ba 4453 2dba ef8e f5b7
00000340: 5766 fbb8 e58c d1b8 ffab 07b7 a901 8cb8
00000350: e55f bfb8 c457 04b8 57ac 8fb8 5a64 a0b8
00000360: 9da4 8539 1bb1 6ab8 bdbe 98b9 1192 1f39
00000370: 2f8a d6b8 2358 13b9 e69a 1a39 5c93 5337
00000380: 6dc0 8ab6 f379 32ba d641 50ba b411 42ba
00000390: d2e9 2dba d7c3 30ba c561 35ba 6391 7eba
000003a0: a7d9 43ba a60d 38ba 13b6 a4b9 379e a0b9
000003b0: fade cab9 2803 31ba dde3 45ba bddb 2eba
000003c0: e59b 7cba 5d32 87ba be76 61ba 9f03 90b9
000003d0: bf49 beb5 7a04 ca38 01dc d4b9 9e8c 72b9
000003e0: 01e2 90b9 d940 dbb9 fd68 efb9 0f5f deb9
000003f0: 1732 21ba 625d 18ba 0d3d 56ba 6d94 31ba
-8.171139e-05 -0.00015578627 -0.00026963797 -0.00031907717 -0.00049234927 -0.00044634982 -0.00041085083 -0.00039090248
-0.00027547847 0.00032906106 0.0003536965 0.0005842147 0.00035346308 0.00040681887 0.00048682842 0.0004667012
0.0005019644 0.00046971286 -0.00037691623 -0.00020075563 0.0002301462 -0.00016773977 -7.9397745e-05 0.0001701244
6.257324e-05 8.069626e-05 0.00017118885 -0.000132369 -2.3061413e-05 5.1959807e-05 -5.1136674e-05 2.2232522e-05
0.00010037436 0.00010566595 0.0001726526 0.000174979 -0.00039155467 -0.0004015621 -0.00040263621 -0.00037757997
-0.00038909644 -0.00038251112 -0.00035125978 -0.0003654688 -0.00035515035 -0.00017208674 -0.00019379478 -0.00019477033
-0.00015437555 -0.00017206419 -0.00017636872 -0.00011563975 -0.00013810748 -0.00014958391 -0.00017369681 -0.00019198724
-0.00040155434 -0.00013384661 -0.00022907155 -0.00046410246 -0.00016441155 -0.00031826735 -0.00046177238 -0.00062032166
-0.00058799755 -0.00059460854 -0.0006449129 -0.00059731427 -0.00046597986 -0.0004433179 -0.0003842419 -0.0003779524
-0.00026139655 -0.00027442715 -0.0002739474 -0.00025470898 -0.00026985057 -0.0002721785 -0.00024409115 -0.00026362776
-0.00026346417 0.0004627574 0.00038405656 0.00046702585 0.00044958256 0.00031262782 0.0004532778 0.00042720552
0.00038714428 0.00050631084 0.00015214691 7.2852396e-05 0.00025557596 -8.761656e-05 7.4271156e-05 9.329624e-05
-0.00024554986 -5.7254045e-05 -8.197459e-06 -0.00019361718 -0.00023477699 2.6031841e-05 -0.0001656277 -0.00019624003
-3.2107553e-05 2.3420807e-05 3.3919707e-05 4.1275904e-05 -0.0008295457 -0.00075936667 -0.00070109655 -0.0006937183
-0.0004740122 -0.00047951052 -0.0008465583 -0.0006827907 -0.00062830996 -0.0005538318 -0.00046225908 -0.00020764732
-0.00057420466 -0.0004441515 -0.00019979988 -0.0005425656 -0.0006023521 -0.00037091458 -0.00096859277 -0.0010991063
-0.001230364 -0.0010895826 -0.0011426696 -0.001111055 -0.0011136939 -0.001159918 -0.0010240057 -0.00071245607
-0.0007918284 -0.0008251406 -0.0007283316 -0.0007929379 -0.00101221 -0.0008971138 -0.00085683964 -0.0011547591
0.00020066906 0.00036223247 0.00052516727 0.00025756433 0.0003191559 0.00039813435 0.0003440596 0.0003353844
0.00041338158 1.5727291e-19 -1.7789769e-19 4.9270344e-20 -2.6471683e-20 -1.9075626e-19 -2.1389561e-19 1.1351014e-19
-2.3448487e-19 4.6448004e-20 -0.0004583931 -0.0002690508 -0.0003217817 -0.000725288 -0.0004447407 -0.00036754992
-0.00095281465 -0.0007993901 -0.00061095844 5.262731e-08 2.5593806e-07 3.0026715e-07 9.074578e-09 7.8221994e-08
2.3828815e-07 -5.344049e-08 2.9235836e-09 2.9576576e-08 -1.0009133e-11 4.2883583e-12 6.4607264e-11 -1.4807437e-14
2.37906e-14 1.7781483e-12 3.730843e-36 -9.514111e-23 1.3783244e-16 -0.0010667527 -0.0010232828 -0.00101318
-0.0011834116 -0.0010776935 -0.0009580102 -0.0011940328 -0.0011503763 -0.0011174213 -0.0012347215 -0.0010232046
-0.00083853706 -0.00109753 -0.00083832565 -0.00058178976 -0.0011782972 -0.0009938515 -0.0006611834 -2.9272835e-05
-0.00011987675 -9.99214e-05 -8.086673e-06 -6.6760294e-05 -9.1254515e-05 -3.155299e-05 -6.850872e-05 -7.6480865e-05
0.00025490383 -5.595489e-05 -0.0002913381 0.00015217836 -0.00010230054 -0.00014051846 0.00014744289 1.261089e-05
-4.135122e-06 -0.0006808333 -0.00079443806 -0.00074031507 -0.0006634268 -0.00067430496 -0.0006919171 -0.00097109954
-0.00074710924 -0.0007021077 -0.00031416173 -0.00030635457 -0.00038694573 -0.00067524845 -0.0007548908 -0.0006670317
-0.0009636267 -0.0010314692 -0.0008600763 -0.00027468518 -1.4177566e-06 9.6329444e-05 -0.00040599707 -0.00023131302
-0.00027634206 -0.0004181925 -0.00045663855 -0.00042413964 -0.00061491266 -0.0005812255 -0.00081725494 -0.00067741313
